torch_data/sign_model.pt (torch, 851106 bytes, 22 tensors)

model.0.weight f4 [512, 63]
00000000: e472 5cbb fc8f 52bb f675 943b bdd4 a9bb
00000010: 85c8 01bb 7349 ddbb d14c b0bb 0c58 b339
00000020: 1e27 c7bb 6897 a7bb 5571 673b 9a39 a6bb
00000030: 6e3c 9cbb c852 be3b ab95 8abb bf14 a2bb
00000040: a0b8 7d3a 7d19 cdbb 2663 95bb 3815 4b3b
00000050: 3893 abbb 16fb 98bb 607c 993b 878d 8dbb
00000060: bf98 a1bb 4671 b93b dc37 80bb f797 69bb
00000070: 8858 833a b93b afbb 779b 6ebb 9d20 6c3b
00000080: 274b b1bb f577 5bbb c2e5 b93b 1b1f a4bb
00000090: bd18 4cbb 0a85 d33b 8cc3 97bb 02bb 01bb
000000a0: 166d 873a 3d45 8bbb d0a2 00bb 4471 6f3b
000000b0: 1867 98bb 8626 c8ba 7a42 c13b 58c2 98bb
000000c0: b60a c1ba d1bf e63b 9505 98bb f61e 8fba
000000d0: 6806 5e3a 88db 41bb 3a90 85ba 7584 3b3b
000000e0: 327d 6bbb 5447 8fba 9c89 813b 5b3e 8cbb
000000f0: 987c afba cd74 9a3b 9164 9fbb 4dd3 26bd
00000100: 660d 08be 681c 353e 8ae9 0bbe f764 3a3b
00000110: 6d95 a7bc 153a 30be b62a 363e 818c cf3c
00000120: 4d06 403d afc9 283e fd55 403d a50d 053e
00000130: 0f18 76be d6bd 963d 28dc 353e 6edc 31bd
00000140: d72c d0bd e3f8 0fbb 223e 193e ed62 1abe
00000150: 2915 92be 1a9e 6b3e 21eb 09be 60f5 02bf
00000160: 43c7 fb3e 3d9a 27be b237 443e a748 2abc
00000170: 310f 14bd 9028 e13e e3fb 1fbe 5b07 1c3e
00000180: c704 af3e 6577 3ebe 41ee 803e 3b88 2c3e
00000190: 4ba5 3cbe 7418 ad3e 86fe 9c3d 4f51 c4bd
000001a0: 458a a33d 946a 2d3d 9bc1 89be 1688 713d
000001b0: 0a0a 06be 30ff 85be cf0b a0bc 6cfd 92be
000001c0: c1dc d6bd 5e84 2abd 9208 a5bd 5be7 d0bd
000001d0: 4119 523d 4205 21bd 0ee0 44be 3aa0 e1bd
000001e0: 06a8 05bc 0e46 573e c025 e7bd be97 c5bc
000001f0: 42ad 113f eacd a0bd b1e3 0039 0834 02bb
00000200: 4e11 c3b9 99a4 a2b9 7719 0cbb 9d89 da39
00000210: 8a18 26ba d6ff 0ebb e257 223a 8d85 cab9
00000220: 3d90 0abb 3e14 3b3a 5eb0 21b9 9f17 07bb
00000230: 9bd1 513a e3c1 1dba 1dcd eeba 04fd 6a3a
00000240: 09dd 42ba 23c0 afba 8999 6d3a 5941 51ba
00000250: 365b a9ba c544 6f3a 5679 4cba 3152 b0ba
00000260: 6f8e 723a 023d 84b9 f429 daba e291 8e3a
00000270: 177e d4b9 d83f 93ba bd01 7e3a ef4f f9b9
00000280: 9a7e 8aba 5f2d 7a3a d672 fab9 101a 9aba
00000290: cb5a 7e3a 5a34 8c38 ae97 d6ba c6cc a43a
000002a0: 3be8 69b8 63c7 9eba 6309 873a 2d86 41b9
000002b0: 3107 95ba 1f7a 843a 5afc 80b9 6441 98ba
000002c0: ae9b 873a aa70 ad39 c3a3 dbba 3a47 b23a
000002d0: 1ad3 7c39 137f caba e2f5 a73a 18c1 a438
000002e0: 9fc7 bdba 5b21 9f3a 3b1f d8b7 b03d b5ba
000002f0: 13b8 993a 761c d63e 5970 1ebe b662 afbd
00000300: fa08 543e ec41 47be c230 0d3e b428 a33d
00000310: 6daa 66be d51b 133e 170f 6bbe f638 92bb
00000320: 4b08 0a3e 3901 d3be 6010 b63e 9b9a e33d
00000330: ea15 3f3e 9d1d 1a3e 7e68 1e3d 1a49 05bd
00000340: 9424 1b3b 551e b7bc a8eb f03c c44c 20be
00000350: f9d4 58bd 9cc3 97bd 912e 00be 6bbd d0bd
00000360: bc35 243e 08db 7f3e 4f02 2cbd 38e3 18be
00000370: 0e1a d53d dcf3 9fbc 8274 26be cb35 c53d
00000380: 8d6b 96bd 841f 87be cd6d c33d fe4c d2bd
00000390: 3d00 203e 17d1 733e 6760 aabc 11ad 0cbc
000003a0: c007 8e3d a5d9 eeba 6f99 773c 5c85 16be
000003b0: 63e4 a93d e447 7abc f12f 6fbe d1b3 823d
000003c0: af79 8f3e 1524 423e 32df 88bd a264 a13d
000003d0: 5be5 bc3a 4c8c b53c b6e0 81bd d5ee 22be
000003e0: ecd6 b33b 5a89 2ebe 3b8e 50be edfc 193b
000003f0: a757 953e 6a14 e0bd 7721 93be bd61 293e
-0.0033637816 -0.0032129278 0.0045306636 -0.005182831 -0.0019803357 -0.0067531406 -0.005380251 0.0003420714
-0.006077661 -0.0051144846 0.0035315354 -0.0050727846 -0.004767946 0.005808208 -0.0042292676 -0.004946321
0.00096786954 -0.006259142 -0.0045589386 0.003098799 -0.0052360557 -0.0046686037 0.004684016 -0.00431985
-0.004931539 0.005659255 -0.003912909 -0.0035643557 0.0010020891 -0.0053476957 -0.0036408582 0.0036030181
-0.00541057 -0.0033488248 0.005673141 -0.005008591 -0.0031142675 0.0064550685 -0.0046314653 -0.0019795303
0.0010332193 -0.004250197 -0.0019628294 0.0036536017 -0.0046509616 -0.001527027 0.005897817 -0.0046618395
-0.0014727924 0.0070419093 -0.0046393373 -0.0010919261 0.00084695825 -0.0029580314 -0.0010190078 0.0028612886
-0.0035932777 -0.0010931292 0.003953172 -0.0042798943 -0.0013388572 0.004713631 -0.0048642834 -0.040728856
-0.13286361 0.17686617 -0.13663307 0.0028441527 -0.020456994 -0.17209657 0.1778973 0.025335552
0.04688101 0.16483186 0.046957005 0.12993486 -0.24032615 0.07360427 0.17759764 -0.04342311
-0.101648025 -0.0021968416 0.14965108 -0.150768 -0.2853177 0.2300953 -0.13468601 -0.5115566
0.49175462 -0.16367431 0.19161871 -0.010393298 -0.0361473 0.4397626 -0.15623431 0.15237181
0.34183332 -0.18600233 0.25181773 0.16848843 -0.1842243 0.3380772 0.07665734 -0.09585821
0.07985357 0.04233797 -0.26905522 0.058967672 -0.13089767 -0.26171255 -0.01953688 -0.2870897
-0.10491324 -0.04163014 -0.08058275 -0.102003776 0.051293615 -0.039311655 -0.19226095 -0.11016889
-0.008157736 0.21022817 -0.11286497 -0.024120208 0.56904995 -0.07851775 0.00012291853 -0.0019867439
-0.0003720619 -0.00031021683 -0.0021377483 0.0004168273 -0.0006336054 -0.002181997 0.0006192905 -0.00038627945
-0.0021143102 0.00071365 -0.00015419858 -0.0020613445 0.0008003951 -0.0006017966 -0.0018219088 0.0008964094
-0.00074334495 -0.0013408702 0.0009063711 -0.0007982455 -0.001292086 0.0009127374 -0.0007800063 -0.0013452229
0.00092527916 -0.00025222456 -0.0016644583 0.0010877217 -0.00040529735 -0.0011234237 0.000968959 -0.00047552536
-0.0010566295 0.0009543504 -0.00047769275 -0.0011757035 0.000970286 6.6854715e-05 -0.0016372108 0.0012573234
-5.576781e-05 -0.0012113865 0.001030248 -0.00018455899 -0.0011369941 0.0010107196 -0.0002460208 -0.0011616168
0.0010346079 0.00033081073 -0.0016757179 0.001360155 0.00024111234 -0.0015449248 0.0012814368 7.856096e-05
-0.0014479047 0.0012140678 -2.576375e-05 -0.0013827588 0.0011727832 0.4181859 -0.15472545 -0.085637495
0.2070655 -0.19458741 0.13788131 0.07966748 -0.2252595 0.14366086 -0.22954975 -0.0044623567
0.13479726 -0.4121187 0.35559368 0.11113473 0.18660703 0.15050359 0.03867387 -0.03254042
0.0023672925 -0.02235333 0.029409245 -0.15654284 -0.05293748 -0.074103564 -0.12517764 -0.101923786
0.16036123 0.24985898 -0.04199439 -0.14930427 0.1040536 -0.01952546 -0.16255382 0.09629401
-0.073447324 -0.26391232 0.09542427 -0.10268591 0.15625091 0.2381023 -0.020797921 -0.008586184
0.06935072 -0.0018222822 0.015112265 -0.1469931 0.082955144 -0.015275929 -0.23358132 0.063819535
0.28022525 0.18959077 -0.06683196 0.07880522 0.0014411615 0.022161625 -0.06341688 -0.1591142
0.005488267 -0.17044583 -0.20366757 0.0023496703 0.29168436 -0.10941394 -0.2873647 0.1654119

model.0.bias f4 [512]
00000000: 6d6b ff31 6b0f 70b5 cc8f 5aaf 3130 aab5
00000010: 001f 26b6 72d1 7936 60a8 0080 05a6 0080
00000020: 12db f736 4396 0080 1016 82b7 6daa 8db5
00000030: c193 0000 578c 0000 cc8c 0080 b297 08b6
00000040: c2ae 0080 5497 0000 52a4 0080 f515 4135
00000050: 664b bab5 b299 0000 6a93 0080 5391 0000
00000060: bfa9 0080 1193 b9b6 6549 e6b3 e3a1 05b6
00000070: dc8c 90b6 b99c 0080 b984 7634 e9df bfb7
00000080: 10d8 f4b4 91a5 0000 b6bb 9db2 809f 0080
00000090: 44bd 39b6 f890 0000 4bac 0000 06a4 2335
000000a0: d740 0638 04dd 2cb6 9b4b fab6 48f5 a235
000000b0: 658d 0000 f1a1 0080 3092 3db5 2ac0 85b4
000000c0: 856f 88b3 06b1 04b7 e14c 8634 3867 d032
000000d0: b4a1 0000 dbaf f1b2 ab3d 99b2 0990 0080
000000e0: 5cb7 c7b3 edbb 48b3 4089 a435 6c84 9cb5
000000f0: 66dc 0c36 42a7 5fb5 fe8f 0000 2661 2e34
00000100: 2eae 0080 f19a 0000 8cf5 1034 1b36 dab5
00000110: 53ab 0080 ab94 0000 d414 8bb5 378e 0000
00000120: 0dd7 9c36 d5b9 07b7 f03a 6435 e252 2cae
00000130: 4d8c 1a36 8cac 0080 7e7a 4fb8 72a4 0000
00000140: ac7b c734 e588 0000 4e16 00b6 40cb 0732
00000150: 2097 0080 d3ab cb35 b19e d536 803d 8cb3
00000160: 4b3f 2635 1800 ee35 3ca0 f4b5 b4a9 0080
00000170: 06a7 c835 422d e9b3 16a2 0080 0bb5 d5af
00000180: 4b90 0080 07ad 0080 10a5 0000 b9b4 9937
00000190: 1295 0000 6395 0000 1b36 ebb5 046a 1037
000001a0: 438f 0080 14a8 0000 b5f7 06b6 36ce cb35
000001b0: 098a 0080 7f99 0000 9d32 1a35 ecae 0000
000001c0: 7e34 2ab4 bf9c 0000 4dd2 9cb6 2571 e335
000001d0: c538 e531 9d8d 0080 a0a6 0000 5332 51b7
000001e0: ef68 ddb7 59a6 0080 8ef8 34b5 56b4 2034
000001f0: 19b0 4e33 2aab 0137 6caf 0080 ca84 02b6
00000200: 65e9 f635 cff4 15b5 afe7 5ab5 6546 4436
00000210: a092 0000 b1f4 beb6 4a9c 0000 1962 b937
00000220: fda2 0000 ee88 02b6 6434 99b5 ebad a5b5
00000230: 148f 0080 77db fbb3 17bf 04b5 82c7 a6b7
00000240: 3b84 12b7 9490 0000 fbf2 26b5 b8a7 83b5
00000250: 85a8 0000 4125 0337 6793 4e34 c19f 0000
00000260: dea6 0080 e133 43b7 6e41 5d30 65a5 0080
00000270: 5275 7b35 d59a 0000 f016 dfb6 03c9 ecb6
00000280: d376 1a37 6a74 07b6 7c8c 0000 0689 0000
00000290: 0e94 0080 0423 0636 35a2 0000 77a6 0080
000002a0: 6079 6937 b255 9e35 b88d 0080 7d2e 9137
000002b0: bc58 97b5 3b93 0080 0363 8634 f71f 3933
000002c0: 3ed8 0eb6 3cf4 9fb5 69e8 9e34 6d30 cfb5
000002d0: b821 9fb4 5f5b 2db5 4c8e 0080 a5bf 39b5
000002e0: 128e 0000 3f9b 0000 a38b 0080 8290 0000
000002f0: c549 acb5 f381 2936 f3a4 0080 95a1 0080
00000300: cddd c6b5 9fab 0000 5529 c631 1096 0080
00000310: d97a adb5 21ad de35 dbe0 3ab2 919b e134
00000320: 5033 8a36 2e89 0000 d67f 36b7 a9a1 0080
00000330: e9a7 0080 ad3d 5036 7199 0000 0b31 7eb5
00000340: 6ea3 0080 429f 0080 1294 5a35 cf12 5235
00000350: c7a4 0000 7a82 2233 04aa 0000 61b1 d3b4
00000360: 62aa eeae ed1a b6b5 de73 79b4 4461 3432
00000370: 91fb 32b5 8fba f035 64ee 02b6 13b1 13b4
00000380: e11c 2133 31f2 a3b4 7c5e 63b7 7bad 0000
00000390: 7b98 0000 16a1 0000 1172 b1b4 2587 8f35
000003a0: a98e 0080 e23a d4b5 3e93 0080 4b28 2bb4
000003b0: 8747 02b7 af91 0000 aee5 1730 c5ab 0080
000003c0: d3a4 0000 da90 0080 88a8 0000 d278 7b33
000003d0: 34a7 6635 7faa 0080 5aa4 0000 5dbc 3c35
000003e0: 006c 0000 9c93 0000 727d d4b5 8bb0 11b6
000003f0: 57ae 0000 d33b 2136 8962 7e36 393b b7b4
7.4336897e-09 -8.9429403e-07 -1.9878071e-10 -1.2680013e-06 -2.4753972e-06 3.7225805e-06 -6.0402e-41 -5.9557e-41
7.3866768e-06 -5.3904e-41 -1.5507481e-05 -1.0554919e-06 5.3004e-41 5.0344e-41 -5.0508e-41 -2.0353878e-06
-6.2691e-41 5.4286e-41 -5.8947e-41 7.1930054e-07 -1.3880024e-06 5.5135e-41 -5.2882e-41 5.2133e-41
-6.0893e-41 -5.5305504e-06 -1.072356e-07 -1.9912775e-06 -4.3079326e-06 -5.6221e-41 2.295882e-07 -2.287324e-05
-4.5605748e-07 5.9394e-41 -1.8362567e-08 -5.7218e-41 -2.7677315e-06 5.2005e-41 6.1807e-41 6.096092e-07
3.2008476e-05 -2.5758645e-06 -7.4593822e-06 1.2141327e-06 5.0723e-41 -5.8094e-41 -7.062072e-07 -2.4912998e-07
-6.353279e-08 -7.90903e-06 2.5015382e-07 2.4261325e-08 5.8008e-41 -2.8136062e-08 -1.7839588e-08 -5.167e-41
-9.3000125e-08 -4.6737046e-08 1.2258897e-06 -1.1661446e-06 2.0989914e-06 -8.3317366e-07 5.1655e-41 1.6240355e-07
-6.2484e-41 5.5583e-41 1.3500375e-07 -1.6258012e-06 -6.146e-41 5.3332e-41 -1.0362369e-06 5.1017e-41
4.6741975e-06 -8.089894e-06 8.5022384e-07 -3.9181887e-11 2.3029454e-06 -6.1898e-41 -4.9466726e-05 5.8992e-41
3.7156622e-07 4.9109e-41 -1.908647e-06 7.904248e-09 -5.4213e-41 1.5174686e-06 6.366369e-06 -6.530445e-08
6.193192e-07 1.7732409e-06 -1.8226051e-06 -6.0878e-41 1.4949771e-06 -1.085814e-07 -5.8145e-41 -3.8873113e-10
-5.1763e-41 -6.207e-41 5.9213e-41 1.8323177e-05 5.3476e-41 5.359e-41 -1.7524611e-06 8.6077525e-06
-5.1393e-41 6.0295e-41 -2.011174e-06 1.5184694e-06 -4.9518e-41 5.5064e-41 5.744312e-07 6.275e-41
-1.585158e-07 5.623e-41 -4.6736445e-06 1.6945747e-06 6.671231e-09 -5.0801e-41 5.9774e-41 -1.2469088e-05
-2.6394117e-05 -5.9674e-41 -6.741692e-07 1.4966767e-07 4.8123272e-08 7.728851e-06 -6.293e-41 -1.9448803e-06
1.8396355e-06 -5.586307e-07 -8.154847e-07 2.924725e-06 5.2599e-41 -5.690927e-06 5.6066e-41 2.2099399e-05
5.8469e-41 -1.9451213e-06 -1.1414636e-06 -1.2344075e-06 -5.1327e-41 -1.1728019e-07 -4.9451904e-07 -1.9881645e-05
-8.733065e-06 5.1865e-41 -6.21934e-07 -9.809073e-07 6.0453e-41 7.816882e-06 1.923887e-07 5.7309e-41
-5.986e-41 -1.1634985e-05 8.0492313e-10 -5.9332e-41 9.367551e-07 5.5543e-41 -6.648588e-06 -7.056749e-06
9.206781e-06 -2.018433e-06 5.0396e-41 4.9155e-41 -5.3112e-41 1.9987938e-06 5.8189e-41 -5.9716e-41
1.3916142e-05 1.1796858e-06 -5.0839e-41 1.7306995e-05 -1.1276202e-06 -5.2816e-41 2.5031486e-07 4.310274e-08
-2.1285518e-06 -1.1917505e-06 2.9598894e-07 -1.5436796e-06 -2.9640591e-07 -6.4580485e-07 -5.1047e-41 -6.919675e-07
5.0965e-41 5.5692e-41 -5.0092e-41 5.184e-41 -1.2836468e-06 2.5258603e-06 -5.9173e-41 -5.7965e-41
-1.4816702e-06 6.1566e-41 5.7672573e-09 -5.3832e-41 -1.2925258e-06 1.6590676e-06 -1.0877751e-08 4.2022705e-07
4.118694e-06 4.9211e-41 -1.08778095e-05 -5.7993e-41 -6.0235e-41 3.1030315e-06 5.5044e-41 -9.469374e-07
-5.8628e-41 -5.7131e-41 8.14268e-07 7.8258466e-07 5.9111e-41 3.7837232e-08 6.099e-41 -3.9430873e-07
-1.0853253e-10 -1.3567893e-06 -2.3232084e-07 1.0499495e-08 -6.6676245e-07 1.7935689e-06 -1.9510271e-06 -1.3754861e-07
3.7512e-08 -3.0537333e-07 -1.3552253e-05 6.2233e-41 5.47e-41 5.7787e-41 -3.3051813e-07 1.0693662e-06
-5.1177e-41 -1.5812368e-06 -5.282e-41 -1.5940275e-07 -7.765258e-06 5.2261e-41 5.5259874e-10 -6.1619e-41
5.9128e-41 -5.1963e-41 6.0458e-41 5.8550377e-08 8.592499e-07 -6.1162e-41 5.8958e-41 7.030956e-07
3.8743e-41 5.2952e-41 -1.583174e-06 -2.1709445e-06 6.2541e-41 2.4025692e-06 3.7906304e-06 -3.4129496e-07

model.1.weight f4 [512]
00000000: 7aaf bd3c f582 f13e fc1b 713b 0dc9 d03e
00000010: 0780 ac3e 1d9e 043f fa88 0080 1689 0000
00000020: e204 203f 4889 0000 f784 123f ea55 573d
00000030: 4596 0080 b9b1 2725 4d89 0080 52a6 d93e
00000040: 1c6d 3218 ea88 0080 4a89 0080 7777 9a3e
00000050: 29dd ac3e 3b8e 0000 d391 0000 0989 0080
00000060: d088 0080 3482 033f d200 cc3e b71d 0a3f
00000070: 18a0 b23e b08a 0000 310e 223f b4cb 133f
00000080: 21a0 cc3e c588 0000 0d42 c33e 5ee8 13b9
00000090: e07b a43e fa88 0080 e58b 0080 e676 013f
000000a0: 9298 ef3e 96bd c53e 3088 db3e cf98 a33e
000000b0: e789 0080 1741 a411 7585 b53e 53d5 613e
000000c0: f535 bb3e 8284 313f 3756 763e 5588 dabc
000000d0: 0e8a 0080 48dc 903d b48a 803d 4d3f 58b6
000000e0: 1074 973e 36f2 983e 1501 cf3e 68da fd3e
000000f0: 4552 f13e dc7c ec3e c389 0000 6ec1 b43e
00000100: 5b21 0080 325c f528 401a 8c3e adf3 ed3e
00000110: a789 0080 d288 0000 7c3a 923e 948c 0080
00000120: 18e6 fc3e 69af 073f 8ca2 913e 609c a43b
00000130: 6465 0e3f e988 0080 07a7 113f c188 0080
00000140: 9cd6 c43e c488 0080 df9e 003f bc43 173f
00000150: 3189 0000 5e27 be3e 5c86 ac3e 4e9c ea3e
00000160: 13b2 803e 4df2 b73e 5a1a b93e 5c89 0080
00000170: beb8 be3e 7b43 293d 3d89 0000 4a6e 3e38
00000180: 6489 0080 1d89 0080 d888 0080 143e 043f
00000190: f488 0080 8b9e 0000 02fd 013f 2b16 e23e
000001a0: e489 0000 5489 0000 368b da3e 4e07 063f
000001b0: a88b 0080 438a 0080 2233 4b3e bd88 0080
000001c0: 8499 7d3e d288 0000 fd3f a83e ddbd 033f
000001d0: c01e 623e 48d6 0600 e788 0000 fc3c f23e
000001e0: dd08 153f 145c f729 5ed5 5c3e 3ced 093e
000001f0: 2319 5a3e 2a0b 1a3f fe98 0000 f188 203f
00000200: f423 133f 7f01 143e fb5b b03e cabc 0d3f
00000210: f889 0080 9ce6 e43e dc8b a987 4474 053f
00000220: 5689 0000 6a77 073f 9064 ad3e ca7f 033f
00000230: a192 941e b6bb 993e bcca 823e 1dbb f83e
00000240: 2fe4 083f 5889 0000 b2c9 813e da9f ea3e
00000250: 4789 0000 f98e c33e b3cf e33e e888 0080
00000260: c805 0031 2ffc 1b3f edf4 b6bb 26a6 cf36
00000270: 6445 dd3e 0889 0080 4d7e e83e 10e2 f43e
00000280: 9006 073f 2080 df3e af89 0080 2289 0000
00000290: 1689 0080 2aa0 f23e f589 0080 9289 0000
000002a0: 2a09 f73e fc79 d83e c788 0000 f9ad 123f
000002b0: 09a7 b63e 8c89 0000 ff45 ff3e 70d1 b83d
000002c0: b074 343f 624b 1a3f 594a d43e 46d9 223e
000002d0: 148d ee3e 01cc a83e cb89 0000 43ec a53e
000002e0: 219a 0000 c588 0080 688e 0080 bc7e 10b9
000002f0: 5228 e03e eed7 c93e 018a 0080 c888 0080
00000300: cb7f f63e 0b4f 4434 6430 5b3a a989 0080
00000310: 8dfd a93e a4f1 973e 568d 4a3e 0224 1b3e
00000320: 52c3 0f3f c38c 0080 44ac 273f 1189 0080
00000330: b089 0080 c0e4 a23e f99d 0000 c0d5 d33e
00000340: 06ab 0000 bd9b 8387 794e d23e 4ef9 e43e
00000350: 2a89 0080 6018 a53e 078c 0080 c141 aa3e
00000360: 8db9 113c 9ff4 f33e 7a06 2c3e 296a a23c
00000370: c880 683e 77c2 cc3e b574 bf3e 2735 c83e
00000380: a672 403c b868 1f3f fdb8 f33e a8e2 ac39
00000390: 3089 0080 0689 0000 6066 803e 1341 e23e
000003a0: d389 0000 1b7d d13e ec88 0000 9962 e93b
000003b0: 740c b93e f288 0080 e284 5d3c 1e3d b71c
000003c0: 1789 0080 503d 5199 c088 0080 f6a3 023f
000003d0: 2fd0 723e a08c 0080 768d 0080 3ef7 c93e
000003e0: 208a 0000 2a89 0080 cdfc e83e 7445 c43e
000003f0: 1689 0000 6340 ed3e 844b b73e c34c 383e
0.023154963 0.47170225 0.0036790362 0.4077839 0.33691427 0.5180376 -4.9138e-41 4.9177e-41
0.6250745 4.9247e-41 0.5723414 0.05257217 -5.3907e-41 1.4545156e-16 -4.9254e-41 0.42509705
2.3061047e-24 -4.9116e-41 -4.925e-41 0.3016927 0.33762482 5.1023e-41 5.2312e-41 -4.9159e-41
-4.9079e-41 0.5137055 0.39844376 0.5395159 0.34887767 4.9752e-41 0.63302904 0.577327
0.3996592 4.9064e-41 0.3813633 -0.00014105576 0.3212576 -4.9138e-41 -5.0185e-41 0.5057205
0.4679609 0.38621205 0.4287734 0.3195252 -4.947e-41 2.5914752e-28 0.35453382 0.22054033
0.36564603 0.69342816 0.24056326 -0.026676336 -4.9525e-41 0.07073265 0.062764555 -3.2223354e-06
0.29580736 0.29872292 0.40430513 0.49580693 0.4713308 0.4618901 4.942e-41 0.35303825
-1.1966e-41 2.7240447e-14 0.27363777 0.46474972 -4.938e-41 4.9082e-41 0.28560245 -5.043e-41
0.49394298 0.5300203 0.28444326 0.005023524 0.5562346 -4.9114e-41 0.5689549 -4.9058e-41
0.38444984 -4.9062e-41 0.5024242 0.5908773 4.9215e-41 0.3713941 0.33696258 0.45822376
0.2513586 0.35927048 0.36152917 -4.9275e-41 0.37250322 0.04132412 4.9232e-41 4.5402245e-05
-4.9286e-41 -4.9187e-41 -4.909e-41 0.51657224 -4.913e-41 5.6875e-41 0.50776684 0.44157538
4.9466e-41 4.9264e-41 0.42684335 0.52354896 -5.0099e-41 -4.9599e-41 0.19843724 -4.9052e-41
0.24765593 4.9082e-41 0.3286132 0.51461583 0.22082043 6.27883e-40 4.9111e-41 0.47312152
0.5821665 1.09849765e-13 0.21565768 0.13469404 0.21298651 0.60173285 5.4883e-41 0.62708956
0.57476735 0.14453696 0.34445176 0.55366194 -4.9494e-41 0.4470719 -2.5510496e-34 0.5213053
4.9267e-41 0.52916586 0.33865786 0.51366866 1.5730754e-20 0.30026025 0.255453 0.48580256
0.5347318 4.927e-41 0.25349194 0.45825082 4.9246e-41 0.38195017 0.444944 -4.9113e-41
1.8629738e-09 0.60931677 -0.0055833966 6.188423e-06 0.43217003 -4.9158e-41 0.4540886 0.47828722
0.5274439 0.4365244 -4.9392e-41 4.9194e-41 -4.9177e-41 0.4738782 -4.949e-41 4.9351e-41
0.4824918 0.42280567 4.9066e-41 0.5729671 0.35674313 4.9343e-41 0.4985809 0.09024322
0.7049055 0.60271275 0.41462973 0.15903196 0.4659201 0.32968143 4.9431e-41 0.32406816
5.5291e-41 -4.9064e-41 -5.1086e-41 -0.00013780122 0.43780762 0.39422554 -4.9506e-41 -4.9068e-41
0.48144373 1.8282678e-07 0.0008361398 -4.9383e-41 0.33201256 0.29676545 0.19780478 0.15150455
0.5615741 -5.0496e-41 0.6549723 -4.917e-41 -4.9393e-41 0.31815147 5.667e-41 0.41374016
6.1352e-41 -1.9802224e-34 0.41075495 0.44721454 -4.9205e-41 0.3224516 -5.0232e-41 0.3325329
0.008894336 0.4764757 0.16799346 0.019826012 0.22705376 0.39992115 0.37393728 0.39103052
0.011746084 0.62269163 0.47602072 0.0003297527 -4.9214e-41 4.9155e-41 0.25078106 0.44190273
4.9442e-41 0.4091576 4.9118e-41 0.0071223495 0.36142313 -4.9127e-41 0.013520451 1.2125723e-21
-4.9179e-41 -1.0817429e-23 -4.9057e-41 0.51031435 0.23712228 -5.0447e-41 -5.0747e-41 0.39446443
4.955e-41 -4.9205e-41 0.45505372 0.3833424 4.9177e-41 0.46338186 0.357998 0.17998032

model.1.bias f4 [512]
00000000: b0d9 c9bc b96c ee3c 2d78 0abc 9a17 fabd
00000010: 86e8 b3bd 24e3 35bd bf88 0080 7e89 0080
00000020: 888a 0cbe 6d8a 0080 46ab 66bc f46e 41bd
00000030: 4089 0080 528e ff93 e289 0080 b71b 2cbe
00000040: 0289 0080 938a 0080 8689 0080 53b6 9b3d
00000050: 1081 e6bd c789 0080 aa89 0080 048a 0080
00000060: 1ca8 0080 eae5 7ebc a2c6 6abd b1be 1bbe
00000070: 835c 89bd 32cc 409a ca9a 3bbe 9741 f13d
00000080: 6622 f9bd c498 0080 cfe6 97bd e89a faba
00000090: 0aa3 bd3c ce88 0080 b6a1 0080 b7b9 57bd
000000a0: 4e7a 7c3d 37ef f0bc c353 e7bd ca58 3bbe
000000b0: 1e89 0080 0f6a 0780 2e5c 8f3d 1894 82bd
000000c0: 96c8 19be 257e 7fbe 379d f2bd 2a7a c73d
000000d0: e1df 0cb9 b613 dabd b3ac 88bd 7a75 0ab8
000000e0: cc8a 98bd d859 28be 1491 4cbd 839f b3bd
000000f0: 347f 93bd 4266 27be 5989 0080 5a63 2fbe
00000100: 0789 0080 51a4 1d8a 00cf d5bd 27b5 f6bd
00000110: dd89 0080 eeae 0080 b9ab d7bd c988 0080
00000120: 5c8f e5bc 6893 cb3b d253 0ebe df27 5bbc
00000130: c892 3d3d 728c 0080 162a 5cbd 6789 0080
00000140: 34d4 2abd 5389 0080 4c7f 28bd 3d8d fabd
00000150: 2f89 0080 edde 32be ebac 09be 7f4d dbbd
00000160: 5618 31be 8693 3fbc 4b9c 97bd 8c89 0080
00000170: e091 92bd 1271 523c e288 0080 c4ce 863c
00000180: bc88 0080 0089 0080 a489 0080 723a 0f3d
00000190: 8089 0080 eea3 2e89 33f4 85bd 2d45 a3bd
000001a0: 5ea2 0080 fa89 0080 00c1 d3bd 41b1 dfbc
000001b0: 05ae 0080 8a5e a799 9f5d cf3d e98e 0080
000001c0: 6639 6dbe 75a0 0080 e487 e63c fb4f 72be
000001d0: ab8e 0bbe 634a 86ba 5f89 0080 fe00 eebd
000001e0: b546 45be 9865 60a3 a80c 17be cb55 ccbd
000001f0: d415 94bd f019 afbd 7084 2792 b1c5 e0bc
00000200: b8f2 f0bd d678 76bd b306 33bc 6e8b 0cbe
00000210: c488 0080 4e00 18bd b49d 4b84 b027 85bd
00000220: 688a 0080 8994 3bbd 1b5e a1bc 7af3 a1bd
00000230: 4129 0480 1b58 a8bd f3d0 b4bd d3f1 29be
00000240: 8112 9ebc 1089 0080 30c8 143d 94f8 7ebe
00000250: 3f8a 0080 87b6 cfba 33d2 82bd bc88 0080
00000260: 13fd 57a2 9fd4 96bb e7ae 5a3d 8f9f 9bb3
00000270: 5d34 2b3c 938a 0080 01a5 dcbc 5c84 863d
00000280: a1f9 06be 67eb bebc e489 0080 c789 0080
00000290: 9389 0080 f844 38be 4389 0080 ed88 0080
000002a0: 0cea 52bd 61ea 16bd 9c8a 0080 eef7 29be
000002b0: 2b7b 49be 3a89 0080 1fc0 96bd defe e0bd
000002c0: ebc7 25be 4759 30be d683 44be 2bf5 ffbc
000002d0: 4605 41bd 5927 23be f288 0080 5a83 0abe
000002e0: 5e89 0080 5389 0080 e089 0080 8fb9 96b6
000002f0: 6e63 f2bc 1bd0 cebd 439a 0080 b58c 0080
00000300: 684b b3bd ad1e daae 5fb8 383d 218a 0080
00000310: dad9 323d 0b2b 46be 57a4 30be 32af bbbd
00000320: a615 bfbd a589 0080 de24 b1bd e488 0080
00000330: 4387 4d9c 0b0b 2bbe 2c89 0080 f251 10be
00000340: dafd 8e96 0922 0a80 ff40 28bd f2d5 85bd
00000350: b699 0080 4de0 82bd 4889 0080 f79a 57be
00000360: 1c73 a0bc fa5c bebd 4b5e 96bd dcec 05bc
00000370: b6e5 803d f3a0 35bd 3f69 80bd d8a2 013e
00000380: e5ed 0e3d 2084 35bd 208f 203d 1313 8cba
00000390: 9c89 0080 a4a0 0080 391d 31be 0567 b2bd
000003a0: 1889 0080 b906 8c3a 1289 0080 88e5 d43d
000003b0: d833 b2bd 5f89 0080 a556 c0bc bf98 0880
000003c0: c788 0080 feac ff82 24a9 0080 9288 1abe
000003d0: 5c40 51be 1199 0080 a4dd 2ead e3d0 42be
000003e0: 0f8a 0080 d288 0080 d5ba 38be 1ca4 4bbd
000003f0: d788 0080 bd96 3ebe 9791 463d a469 cbbd
-0.024639934 0.029104577 -0.008451504 -0.12211533 -0.08784585 -0.04440607 -4.9055e-41 -4.9323e-41
-0.1372472 -4.9658e-41 -0.014078921 -0.047224954 -4.9236e-41 -6.451139e-27 -4.9463e-41 -0.16807447
-4.9149e-41 -4.9711e-41 -4.9334e-41 0.07603135 -0.112550855 -4.9425e-41 -4.9385e-41 -4.951e-41
-6.0306e-41 -0.0155577455 -0.057318337 -0.15209462 -0.06707098 -3.9869617e-23 -0.18320766 0.117800884
-0.12164764 -5.4802e-41 -0.0741707 -0.0019119652 0.023149032 -4.9076e-41 -5.8011e-41 -0.052667346
0.061640076 -0.029410942 -0.11295273 -0.18295589 -4.9188e-41 -6.80895e-40 0.07000004 -0.06375903
-0.15017924 -0.24950464 -0.118463926 0.09740098 -0.00013434842 -0.10648291 -0.06673565 -3.3011172e-05
-0.074483484 -0.16440523 -0.049943045 -0.08770659 -0.072019964 -0.16347602 -4.9271e-41 -0.17127743
-4.9156e-41 -7.5901795e-33 -0.10439873 -0.12046271 -4.9456e-41 -6.2753e-41 -0.105308 -4.9069e-41
-0.02802246 0.0062126406 -0.13899162 -0.013376205 0.04628256 -5.0382e-41 -0.053751074 -4.929e-41
-0.04170628 -4.9263e-41 -0.041137025 -0.1223397 -4.9212e-41 -0.17467852 -0.13444869 -0.107081406
-0.1729444 -0.011692887 -0.074028574 -4.9343e-41 -0.0715673 0.012844341 -4.9104e-41 0.016456015
-4.9051e-41 -4.9146e-41 -4.9376e-41 0.034967847 -4.9326e-41 -2.1021568e-33 -0.06540718 -0.079721786
-5.8246e-41 -4.9497e-41 -0.10339546 -0.027306201 -6.2426e-41 -1.730558e-23 0.10125279 -5.1267e-41
-0.23166427 -5.7561e-41 0.02814097 -0.23663323 -0.13628642 -0.0010245558 -4.928e-41 -0.11621283
-0.19265254 -1.2164578e-17 -0.14750922 -0.09977301 -0.07230726 -0.08549869 -5.285915e-28 -0.027438017
-0.11765045 -0.060173832 -0.01092689 -0.13725063 -4.9062e-41 -0.037109666 -2.3934949e-36 -0.065017104
-4.9651e-41 -0.04579595 -0.019698193 -0.079077676 -3.82141e-40 -0.0821993 -0.088289164 -0.16596155
-0.019295933 -4.9169e-41 0.036323726 -0.24899513 -4.9593e-41 -0.0015847244 -0.063877486 -4.9051e-41
-2.927191e-18 -0.004602983 0.053389456 -7.2467735e-08 0.010449496 -4.9711e-41 -0.026934149 0.06568214
-0.13181163 -0.023305608 -4.9466e-41 -4.9425e-41 -4.9352e-41 -0.1799506 -4.924e-41 -4.912e-41
-0.051492736 -0.036844615 -4.9724e-41 -0.16598484 -0.19675891 -4.9228e-41 -0.07360863 -0.10986112
-0.16189544 -0.17221557 -0.19190916 -0.031244835 -0.04712417 -0.15932979 -4.9127e-41 -0.13526669
-4.9278e-41 -4.9263e-41 -4.946e-41 -4.49195e-06 -0.029588427 -0.10098287 -5.5339e-41 -5.0476e-41
-0.08754617 -9.9189414e-11 0.045097705 -4.9551e-41 0.04366479 -0.19352357 -0.1725019 -0.09164275
-0.09330301 -4.9378e-41 -0.0864961 -4.9107e-41 -6.800363e-22 -0.16703431 -4.9208e-41 -0.1409376
-2.310154e-25 -9.30564e-40 -0.04107761 -0.065349475 -5.5141e-41 -0.06390438 -4.9247e-41 -0.21055208
-0.019586138 -0.092950776 -0.07342204 -0.008174147 0.06293814 -0.044342946 -0.06270074 0.12659776
0.034894843 -0.044315457 0.039198995 -0.0010686837 -4.9365e-41 -5.7627e-41 -0.17296304 -0.08711056
-4.918e-41 0.0010683156 -4.9172e-41 0.10395342 -0.08701295 -4.928e-41 -0.023478815 -7.89479e-40
-4.9066e-41 -3.7568175e-37 -6.0676e-41 -0.1509116 -0.20434707 -5.491e-41 -9.939969e-12 -0.19024996
-4.9526e-41 -4.9082e-41 -0.18040021 -0.049717054 -4.9089e-41 -0.1861219 0.04847869 -0.09932259

model.1.running_mean f4 [512]
00000000: f84c 893b 0c08 83bc bcd3 c9ba a789 8bb9
00000010: e5e8 1fbd a891 5a3c 3c65 0080 4a1b 0000
00000020: 451b 493c edb9 0080 7544 dcbc 3046 b93a
00000030: d83b 0100 13e0 0000 9814 0080 a374 8b3d
00000040: 2200 0180 dc29 0000 3505 0000 de2f f93c
00000050: 2fda 8fbc f28d 0000 d6d9 0080 8c8e 0000
00000060: 500e 0000 e423 893c a8e6 9ebd 27ec bd3d
00000070: ed8a 9a3c 968b 0080 5d9b 623c 2337 54bc
00000080: 80ce 8a3b d1c0 0000 7319 493d 9291 43b5
00000090: 0438 003d bf6e 0000 7ca5 0000 e398 6ebd
000000a0: 2935 35bd 690c 3c3d 7d70 fdbc 65a7 843d
000000b0: 20d6 0000 f5ef 0080 a1ee 65bb 6552 41bd
000000c0: 167a 8abd 6261 7cbd cc41 4cbd 72c3 5ebc
000000d0: 466f 0000 1dcf 603a 2d77 14bc 6c60 0000
000000e0: 4524 81bd 40a8 e1bc f912 41bd de6f 463c
000000f0: c4e7 ba3c 8951 3ebd 15d8 0000 c9c1 f93c
00000100: 5149 0080 80d1 0000 5e8e 1fbd 5f62 3fbd
00000110: 5c83 0080 0784 0000 977d b9bd 4f6c 0000
00000120: a7a3 873c ea44 023d 95f7 bcbc f99a b43a
00000130: bda1 94bb e724 0080 688b 1ebd 34ff 0000
00000140: 9d6c 52bb b465 0100 b7e4 25bd acda 46bd
00000150: 5e82 0080 ac37 813d 5c01 723d c910 ca3b
00000160: 8b0c a8bc fa97 923d ec02 6bbd cd5f 0080
00000170: 0872 75bc 4e5e c0bb ea43 0080 d148 c73a
00000180: 50f0 0080 d412 0080 524b 0080 d636 12bd
00000190: 421b 0000 acd3 0000 6216 93bd 9131 4d3d
000001a0: 10d1 0080 bf53 0100 1087 5b3c 7c6e 823d
000001b0: cb64 0080 6dab 0000 9884 8c3d 7eb0 0000
000001c0: bd17 2abd 920b 0100 da19 0fbd 9ac3 8fbd
000001d0: e4c0 d5bc a99f 0080 8da2 0000 3f34 65bd
000001e0: 0dd5 00bd 8473 0080 b23c 263d 3bf8 903c
000001f0: 9451 9c3c 1971 60bc 6546 0080 8518 64bd
00000200: 7f77 3abd 16a7 9b3c 31f2 41bd 68fc 40ba
00000210: 730a 0100 2675 733c 113c 0000 e537 53bc
00000220: 7fd3 0000 4e1d d2bc 561e 71bc d64b 7abc
00000230: 5115 0080 5f8e 46bd b1c1 94bc e89d 09bd
00000240: 7c10 22bd 57cb 0000 6746 96bd 79ef 8cbd
00000250: e187 0000 993f 64bd 26e4 8cbd 5cc2 0000
00000260: c55f 0180 19d1 b13c f6f0 e13b 85c5 0080
00000270: b639 4a3d 975f 0000 48ac 90bc 12c4 fb3c
00000280: 31a9 81b9 eef3 cebc 451b 0000 d800 0100
00000290: 6324 0080 6b85 afbc d709 0080 5719 0000
000002a0: 3097 a8bd ac37 3a3c 939f 0080 6dbf 0e3d
000002b0: 28eb 87bc a579 0080 b8f0 403d 1f7e ab3c
000002c0: 3805 96bd f38b 08bc 459b 37bd 85ef a63b
000002d0: cc1d 04bd 5a9a 07bc 34a6 0080 bf18 12bd
000002e0: 4e8d 0000 bd61 0000 4198 0080 174f 0000
000002f0: f314 2abc 2257 063e a977 0180 0ee1 0080
00000300: dc49 d93d 8b4f 0100 8762 bfbb 7b58 0180
00000310: f7ac 53bb 9cfd 823d 8ed0 0b3d d5b3 c0bc
00000320: 25cd 123c e897 0000 41c8 53bd 3728 0080
00000330: 4628 0000 4f4b 13bb 689e 0000 e0cc c53d
00000340: 167a 0080 0198 0080 2c4b 1fbd 9e41 1fbd
00000350: c6b5 0000 b490 b1bd 3492 0000 56af 7dbd
00000360: 50f9 163a ef94 4d3d f80c 613c 9ea0 63bb
00000370: 7f29 86bd a0bf 1dbc 4b79 d8bc aedc 573d
00000380: 4c4e c03b 0d90 9bbc 2534 51bd 4217 a333
00000390: ad07 0000 3062 0000 5c12 003c eb51 6bbc
000003a0: a559 0080 2771 71bc 8395 0080 0d97 e9ba
000003b0: c06e 1dbd 6e05 0100 8a62 043b cc63 0080
000003c0: b7d4 0000 9581 0080 96c8 0000 54bd 87bd
000003d0: ba6b 013c 9282 0080 c482 0000 6eda 88bd
000003e0: d12c 0000 d9b1 0000 4574 1a3d e332 9cbb
000003f0: c00c 0080 d0e4 0c3d 6ccd 603d 0edd 8a3d
0.0041900836 -0.015995048 -0.0015398185 -0.00026614705 -0.039040465 0.013340391 -3.6316e-41 9.79e-42
0.012274568 -6.6698e-41 -0.026888112 0.0014135297 1.13303e-40 8.0383e-41 -7.388e-42 0.06809356
-9.1883e-41 1.5016e-41 1.868e-42 0.030418333 -0.017560093 5.092e-41 -7.8145e-41 5.1136e-41
5.134e-42 0.016740747 -0.07758838 0.09273558 0.018865073 -5.0074e-41 0.013830987 -0.012952599
0.0042360425 6.917e-41 0.049096536 -7.2854994e-07 0.03130342 3.9728e-41 5.9365e-41 -0.058251273
-0.04424015 0.045910273 -0.030937428 0.064772405 7.6814e-41 -8.608e-41 -0.003508486 -0.04719772
-0.06761567 -0.06161631 -0.049867436 -0.0135964025 3.9917e-41 0.0008575784 -0.009061617 3.459e-41
-0.06305746 -0.027546048 -0.047137234 0.012111632 0.022815593 -0.046464477 7.7516e-41 0.030487912
-2.6301e-41 7.5154e-41 -0.03895413 -0.046724673 -4.7123e-41 4.7362e-41 -0.090571575 3.8854e-41
0.016557528 0.031804003 -0.023067275 0.0013779096 -0.0045358823 -1.3238e-41 -0.038707167 9.155e-41
-0.0032108196 1.2832e-40 -0.040501323 -0.048548386 -4.6767e-41 0.06309447 0.059083328 0.0061665517
-0.020513793 0.071578935 -0.057375833 -3.4367e-41 -0.0149808 -0.005870617 -2.4363e-41 0.0015204196
-8.6208e-41 -6.754e-42 -2.702e-41 -0.035696827 9.778e-42 7.5934e-41 -0.071820036 0.0500961
-7.4997e-41 1.21878e-40 0.013398901 0.063687295 -3.6158e-41 6.1496e-41 0.06861228 6.3313e-41
-0.041526545 9.5986e-41 -0.034936763 -0.0701973 -0.026092954 -5.7275e-41 5.8312e-41 -0.05595803
-0.03145318 -4.1439e-41 0.040585227 0.01769649 0.019081868 -0.01369884 -2.5253e-41 -0.055687446
-0.045524117 0.019000571 -0.047350112 -0.000736183 9.5584e-41 0.014859473 2.1548e-41 -0.012891744
7.587e-41 -0.02564874 -0.014716705 -0.01527687 -7.647e-42 -0.04847562 -0.018158766 -0.033597857
-0.039566502 7.2945e-41 -0.07337647 -0.06881613 4.8744e-41 -0.055724714 -0.06879453 6.9723e-41
-1.26191e-40 0.02170615 0.00689518 -7.0857e-41 0.049371444 3.4291e-41 -0.017660275 0.030733142
-0.00024730855 -0.0252628 9.782e-42 9.2138e-41 -1.3053e-41 -0.021425923 -3.53e-42 9.09e-42
-0.08231962 0.011365812 -5.7244e-41 0.034850527 -0.016591623 -4.3638e-41 0.047104567 0.020934163
-0.07325214 -0.008334148 -0.04482581 0.005094471 -0.03225498 -0.008276546 -5.9622e-41 -0.03566813
5.069e-41 3.5062e-41 -5.4618e-41 2.8372e-41 -0.010380971 0.13119176 -1.34761e-40 -8.0734e-41
0.10609791 1.2037e-40 -0.005840603 -1.23576e-40 -0.003229914 0.063960284 0.03413444 -0.02352325
0.008960043 5.4494e-41 -0.05170465 -1.4426e-41 1.4447e-41 -0.0022475307 5.6825e-41 0.096582174
-4.3796e-41 -5.4529e-41 -0.03889005 -0.038880937 6.5208e-41 -0.08670178 5.2448e-41 -0.06193479
0.00057591964 0.050190862 0.013736002 -0.0034733186 -0.065508835 -0.0096282065 -0.026425024 0.05270069
0.0058687087 -0.018989587 -0.05107512 7.5945096e-08 2.754e-42 3.5223e-41 0.007816877 -0.0143627925
-3.2158e-41 -0.01473645 -5.3635e-41 -0.0017821506 -0.038435698 9.3783e-41 0.0020200335 -3.58e-41
7.6308e-41 -4.6485e-41 7.1957e-41 -0.06627908 0.007899219 -4.684e-41 4.691e-41 -0.06682287
1.6077e-41 6.38e-41 0.03770854 -0.0047668084 -4.574e-42 0.0343979 0.054883406 0.06780444

model.1.running_var f4 [512]
00000000: d471 803c 0693 5b3e 956b e83a a7ea 013f
00000010: 3cbd 7d3f 81b9 7f3f 0400 0000 0400 0000
00000020: 1aec c63e 0400 0000 b189 c73e 51f2 0b3d
00000030: 0400 0000 0400 0000 0400 0000 40c1 0d3f
00000040: 0400 0000 0400 0000 0400 0000 b806 a33f
00000050: 238d 8a3f 0400 0000 0400 0000 0400 0000
00000060: 0400 0000 fd5d cc3e a057 633f d6c7 f23e
00000070: 6cca 273f 0400 0000 0e09 a43e 13f7 793e
00000080: 86a4 8f3f 0400 0000 409f d13e 8eef cf2f
00000090: be1f 4b3e 0400 0000 0400 0000 2117 313f
000000a0: b90b ae3e 909d c23e d547 6b3f 6737 a33f
000000b0: 0400 0000 0400 0000 83bb cc3e d96f 4b3f
000000c0: d398 e23f 0d5d 433f df79 6a3f 6392 133e
000000d0: 0400 0000 8294 df3c c3c0 0b3d 0400 0000
000000e0: 7153 b63f 456c f93e 78f0 b43e 1a0a 4d3f
000000f0: 4a9b ef3e 6982 843f 0400 0000 5157 7f3f
00000100: 0400 0000 0400 0000 d1e5 9f3f 2467 093f
00000110: 0400 0000 0400 0000 aa5d a93f 0400 0000
00000120: e9a1 b63e 4a8e 663f 2674 c33f 6c7a 0d3b
00000130: 6b23 213f 0400 0000 c100 c23e 0400 0000
00000140: 8d9c 5c3f 0400 0000 9deb 293f af0b 833f
00000150: 0400 0000 6b20 423f 2ed8 563f 005b 0b3f
00000160: b5d7 1c3f 8002 e93e add6 bb3f 0400 0000
00000170: e6da 1d3f 68a2 7e3d 0400 0000 d1f0 643b
00000180: 0400 0000 0400 0000 0400 0000 4bf2 7f3e
00000190: 0400 0000 0400 0000 684a 5e3f c642 303f
000001a0: 0400 0000 0400 0000 c7db d73f ad1a c93e
000001b0: 0400 0000 0400 0000 30af 9e3f 0400 0000
000001c0: 6811 c23f 0400 0000 f92f 4f3f 431a f03f
000001d0: 1d5a a03f 0400 0000 0400 0000 cb93 113f
000001e0: 87ff d53e 0400 0000 cdb0 4a3f 1e67 f03e
000001f0: 35eb 063f 9c6a 453e 0400 0000 e78e 0e3f
00000200: 23c8 e93e 5bb2 0d3f ca09 853f 4900 ec3e
00000210: 0400 0000 ebba 0d3f 0400 0000 1e32 e23e
00000220: 0400 0000 2d17 0640 7abc 323f 7b71 1c3f
00000230: 0400 0000 b356 393f 66cf d13e 1f18 a73e
00000240: 5289 f63e 0400 0000 70c7 7b3f f09f 183f
00000250: 0400 0000 1bff 373f 7765 943f 0400 0000
00000260: 0400 0000 92c0 013f 0f6c 063d 0400 0000
00000270: acce 0c3f 0400 0000 83ef 2c3f 3d7a 123f
00000280: c61e 663f 4572 a83e 0400 0000 0400 0000
00000290: 0400 0000 175e 183f 0400 0000 0400 0000
000002a0: 5d44 803f 3f10 1c3f 0400 0000 07c7 063f
000002b0: f2f1 343f 0400 0000 1cfe 563f fc82 513e
000002c0: f505 253f 3084 d83e e8da 073f a92b d13e
000002d0: 019c 083f f655 843f 0400 0000 ab77 1c3f
000002e0: 0400 0000 0400 0000 0400 0000 0400 0000
000002f0: acd9 8a3e f0e6 223f 0400 0000 0400 0000
00000300: 99e0 693f 0400 0000 bd8b 963c 0400 0000
00000310: 81fe a13f b188 863f ab7e 733f 649b 7c3e
00000320: 9a92 f73e 0400 0000 9366 0a3f 0400 0000
00000330: 0400 0000 0a59 453f 0400 0000 1320 603f
00000340: 0400 0000 0400 0000 7acb 0a3f 8076 8e3f
00000350: 0400 0000 2071 c43f 0400 0000 eef3 5f3f
00000360: c62e 9139 3f4e 093f f350 bc3e dcff bf3c
00000370: f70e 7a3f 1dc0 a83f 9caf 683f 7cbb 033f
00000380: 0848 303d 3dd9 d23e c8ca d73e 4234 592d
00000390: 0400 0000 0400 0000 22dd 343f fc51 153f
000003a0: 0400 0000 8e37 bf3e 0400 0000 0632 073d
000003b0: 2a93 483f 0400 0000 a0e6 913b 0400 0000
000003c0: 0400 0000 0400 0000 0400 0000 8486 923f
000003d0: 6054 723f 0400 0000 0400 0000 8c76 0340
000003e0: 0400 0000 0400 0000 2074 873f d0ac e43e
000003f0: 0400 0000 4d65 ca3e 3b71 c23e e7f3 ad3e
0.015679277 0.21442804 0.0017732257 0.50748676 0.99116874 0.9989243 6e-45 6e-45
0.38852006 6e-45 0.38972238 0.034166638 6e-45 6e-45 6e-45 0.55373
6e-45 6e-45 6e-45 1.2736425 1.0824322 6e-45 6e-45 6e-45
6e-45 0.39915457 0.8880558 0.47418088 0.65543246 6e-45 0.32038158 0.24410658
1.1222084 6e-45 0.4094181 3.7823294e-10 0.19836327 6e-45 6e-45 0.69175917
0.3399332 0.38010836 0.9190648 1.2751282 6e-45 6e-45 0.3998681 0.7946754
1.7702888 0.7631386 0.9159221 0.14411311 6e-45 0.027292494 0.03411938 6e-45
1.4244214 0.48715416 0.35339713 0.8009354 0.46798164 1.0352298 6e-45 0.9974261
6e-45 6e-45 1.2492009 0.53673005 6e-45 6e-45 1.3231709 6e-45
0.35670403 0.90060866 1.5269821 0.0021587862 0.6294467 6e-45 0.378912 6e-45
0.8617638 6e-45 0.6637514 1.023794 6e-45 0.75830716 0.83923614 0.5443573
0.6126664 0.4550972 1.4674889 6e-45 0.6166214 0.0621666 6e-45 0.0034933577
6e-45 6e-45 6e-45 0.24994771 6e-45 6e-45 0.86832285 0.6885189
6e-45 6e-45 1.6863946 0.39278165 6e-45 6e-45 1.2397213 6e-45
1.5161562 6e-45 0.80932575 1.8758014 1.25275 6e-45 6e-45 0.5686614
0.41796514 6e-45 0.79176027 0.46953672 0.5270265 0.1927895 6e-45 0.556868
0.45660505 0.55350274 1.0393612 0.46093968 6e-45 0.5536334 6e-45 0.4417886
6e-45 2.0951645 0.6981884 0.6111066 6e-45 0.7239792 0.40978545 0.3263559
0.48151642 6e-45 0.9835119 0.59619045 6e-45 0.71873635 1.1593465 6e-45
6e-45 0.50684464 0.032817896 6e-45 0.55002856 6e-45 0.67552966 0.5721777
0.89890707 0.3289968 6e-45 6e-45 6e-45 0.5951857 6e-45 6e-45
1.0020863 0.6096229 6e-45 0.5264744 0.7068168 6e-45 0.8398149 0.20460123
0.64462215 0.4228835 0.530684 0.40853623 0.53363043 1.0338733 6e-45 0.611201
6e-45 6e-45 6e-45 6e-45 0.27119195 0.6363363 6e-45 6e-45
0.91358334 6e-45 0.01837718 6e-45 1.2655793 1.0510465 0.95115155 0.24668652
0.48354036 6e-45 0.54062766 6e-45 6e-45 0.7708899 6e-45 0.8754894
6e-45 6e-45 0.5421673 1.1129913 6e-45 1.5347023 6e-45 0.8748158
0.00027691404 0.5363502 0.3678051 0.023437433 0.97679085 1.3183628 0.9089296 0.51457953
0.043037444 0.41181365 0.42146897 1.23466255e-11 6e-45 6e-45 0.7064992 0.58328223
6e-45 0.37347072 6e-45 0.03300669 0.78349555 6e-45 0.0044525415 6e-45
6e-45 6e-45 6e-45 1.1447301 0.94659996 6e-45 6e-45 2.0541105
6e-45 6e-45 1.0582314 0.44663095 6e-45 0.3953041 0.37977013 0.33975145

model.4.weight f4 [256, 512]
00000000: ab48 d93a c1c6 66bc 8d84 163b 47e0 f03c
00000010: 03ac c23d a175 153e e38b 0000 299d 0000
00000020: 55fb b5bd 2ead 0080 4ea3 d53c 3b0e 87bc
00000030: 3989 0080 a7ab 0000 0a93 0000 7720 993d
00000040: 6f8d 0000 4b89 0000 578c 0000 e9d1 483d
00000050: 8501 c8bd 5aab 0080 5e8f 0000 f58d 0000
00000060: d38b 0000 a336 df3d 924c 833b d227 143d
00000070: 1143 a33c 979b 0000 8156 93bd 4e74 95bc
00000080: eb82 e0bd b193 0000 4b8b 04bd 4c46 0638
00000090: 6598 51bb 9d9e 0000 998c 0000 df0c 43be
000000a0: c025 16bd 0201 47bd 6d3d a33d 96df ac3c
000000b0: 5ea2 0000 a293 0080 2939 f4bc 1a70 9b3d
000000c0: 52cf 143d 3376 1ebe 7e0d 8d3d aa66 4bbc
000000d0: cdc1 2085 8704 5abb a211 813b f488 0080
000000e0: 0e6d 793d 3201 aebc d927 013d 7c4c 21bd
000000f0: 98f4 23bd e881 be3d f19d 0000 ca42 ef3d
00000100: 3289 0000 f988 0080 d71d 493d 3748 853d
00000110: ab9d 0080 7e89 0000 1ebc 073e f988 0080
00000120: d021 253d 7d0b 88bc 1743 a8bd 08fa ea3a
00000130: ff7e 4dbd d18b 0000 20d6 fa3d 138e 0000
00000140: 8ba3 1a3d ed89 0000 62a3 2ebc d85f bcbd
00000150: 7292 0000 bca4 2b3d 9e56 e3bc 811b 66bd
00000160: 247e 78bd 4be3 6d3d 01a7 163d d08f 0000
00000170: 83d5 78bd c745 0d3b 4d8e 0080 7f69 2ebc
00000180: d993 0080 088e 0000 698a 0080 5522 a0bd
00000190: ce88 0080 d3a8 6c06 cb82 ab3d fd6a 69bc
000001a0: 6d90 0000 078b 0000 afeb 963d e11b 563e
000001b0: 3b8f 0000 5f8c af15 3b98 273e 7fad 0080
000001c0: 0aaf 533d eb8f 0080 afa9 d63d 611a b03b
000001d0: 5798 073d 3b07 6c37 9295 0080 4509 89bc
000001e0: ea26 7dbd 9189 0080 ee98 96bc 0963 ffbb
000001f0: 4e55 bebc df5c a23d 4fe4 6811 a20e 95bd
00000200: 28e9 a3bd eb2a e9bc 8a4d 54bd 10a7 0dbd
00000210: ef8a 0080 c030 e8bc 22c0 2502 1a3a 7cba
00000220: 878c 0080 80bc a43c 3b68 a7bd d197 36bd
00000230: aa8c 0000 e144 a43c b41a 96bd 3813 cabd
00000240: 997a c63b d6a1 0080 bad1 4a3c 1137 883d
00000250: 1f8a 0000 6d67 53bd fa68 6fbd ce91 0000
00000260: 5b89 0000 9de3 c63c 146a 5739 8789 0080
00000270: 4766 b4bc f05a 0000 db2d 453e a722 91bd
00000280: c0f3 063e eac9 cbbc 4495 0080 8691 0080
00000290: f68c 0000 0579 2e3d bb96 0080 ed97 0000
000002a0: 9711 6cbd 00bc 563d 0d8b 0080 cc17 423d
000002b0: 19e3 28be fa8a 0000 7549 423e 1e2f 46bc
000002c0: b865 c3bc 686a 3d3b db98 12bd 648f cc3b
000002d0: 3cfd 55bc 2490 f4bd 578e 0000 f1ec b6bd
000002e0: 53a5 0000 4789 0000 0c89 0080 0389 0000
000002f0: bdbe a53c 7129 c83d 8b89 0000 5e8c 0000
00000300: f216 363e bf88 0080 9048 e7ba fd8b 0080
00000310: 584d ca3d 7df5 a53c 5d4a 8ebd 98ef e8bc
00000320: 699f afbc b68e 0000 9054 acbd cd88 0080
00000330: 6678 1b1a a705 1b3d efa8 0000 0b73 0d3e
00000340: 3692 0000 4d71 0300 b163 25be 2afb 9ebc
00000350: 128d 0080 67d9 043c 998c 0080 14b2 8e3d
00000360: 35b4 6039 cc7c f8bd f4de 083c 0a88 9f3a
00000370: ca04 063d 3e4e d73d 484d fabc c075 ad3c
00000380: 7c12 98bc a189 a73b b9a7 753c dd5a 5134
00000390: 928e 0080 6e92 0000 77de 1bbc b5a1 05bd
000003a0: 798b 0000 c0c7 b7bc 9509 0080 df39 db3c
000003b0: 285f 1e3c d792 0080 2d36 8abb 7290 0080
000003c0: 6390 0000 01c5 6001 4e91 0080 698a 023d
000003d0: 9261 b8bd 2ba8 0080 f698 0000 79da e5bc
000003e0: a398 0080 1f98 0000 ef3c 453e 14bf 313d
000003f0: 8494 0000 0196 643d 228c ea3c 1519 ae3b
0.0016577443 -0.014085473 0.002296719 0.029403819 0.09505465 0.14595653 5.0182e-41 5.6378e-41
-0.088858284 -6.2125e-41 0.026078846 -0.016486278 -4.9226e-41 6.1577e-41 5.2748e-41 0.07476895
5.0737e-41 4.9251e-41 5.0344e-41 0.04902831 -0.09765915 -6.147e-41 5.143e-41 5.0925e-41
5.016e-41 0.10899093 0.0040069306 0.036170788 0.01992944 5.5815e-41 -0.07194234 -0.018243935
-0.109624706 5.2982e-41 -0.032359403 3.201356e-05 -0.0031981703 5.69e-41 5.0437e-41 -0.19047879
-0.036657095 -0.048584945 0.079707004 0.021102708 5.8246e-41 -5.296e-41 -0.029812412 0.07589741
0.03633053 -0.15474777 0.06887339 -0.012414614 -7.5587594e-36 -0.0033266859 0.0039388696 -4.913e-41
0.06089502 -0.021240804 0.031532142 -0.03937958 -0.040028185 0.093021214 5.6659e-41 0.11682661
4.9216e-41 -4.9137e-41 0.049100723 0.065079145 -5.656e-41 4.9323e-41 0.13255355 -4.9137e-41
0.04031545 -0.01660704 -0.08215921 0.0017927298 -0.05016994 5.0157e-41 0.12247872 5.0967e-41
0.037753623 4.9478e-41 -0.010659071 -0.09197968 5.2535e-41 0.04190515 -0.027751263 -0.056178574
-0.060667172 0.05807809 0.03678036 5.159e-41 -0.060750496 0.0021556483 -5.1048e-41 -0.010645269
-5.3038e-41 5.0951e-41 -4.9652e-41 -0.07819048 -4.9076e-41 4.45107e-35 0.08374556 -0.014246699
5.181e-41 4.9874e-41 0.07369172 0.20909072 5.1381e-41 7.0903404e-26 0.16366665 -6.2239e-41
0.051680602 -5.1628e-41 0.10481583 0.0053742384 0.033104267 1.406838e-05 -5.3656e-41 -0.016728053
-0.06180469 -4.935e-41 -0.01838347 -0.0077937883 -0.023234036 0.0792787 1.8371926e-28 -0.072781816
-0.080034554 -0.028462848 -0.05183176 -0.03458315 -4.984e-41 -0.028343558 1.2177425e-37 -0.0009621695
-5.0412e-41 0.020109415 -0.08174177 -0.044578377 5.0461e-41 0.020052375 -0.07329312 -0.09866947
0.0060570952 -5.8056e-41 0.012379104 0.06651128 4.9549e-41 -0.051612306 -0.058449723 5.2305e-41
4.9274e-41 0.024278456 0.00020543515 -4.9336e-41 -0.022021426 3.2622e-41 0.19255774 -0.070866875
0.13178921 -0.024876554 -5.3546e-41 -5.2204e-41 5.0567e-41 0.042595882 -5.4072e-41 5.4501e-41
-0.057633962 0.052425385 -4.9882e-41 0.047385976 -0.16492881 4.9855e-41 0.18973334 -0.012096195
-0.023852214 0.0028902534 -0.035790306 0.0062426794 -0.013060864 -0.11941555 5.1062e-41 -0.08931912
5.9307e-41 4.9246e-41 -4.9163e-41 4.915e-41 0.020232553 0.09773529 4.9341e-41 5.0354e-41
0.1778219 -4.9055e-41 -0.0017645527 -5.0218e-41 0.098780334 0.02025866 -0.069477774 -0.02843456
-0.021438317 5.1195e-41 -0.084145665 -4.9075e-41 3.2150506e-23 0.037847187 6.0602e-41 0.13813417
5.245e-41 3.16151e-40 -0.1615131 -0.019406874 -5.0606e-41 0.008108473 -5.0437e-41 0.069675595
0.00021429437 -0.12133178 0.008353937 0.001217128 0.03271941 0.105129704 -0.030554429 0.021174312
-0.018563502 0.005112842 0.0149936015 1.9497698e-07 -5.1145e-41 5.2529e-41 -0.009513489 -0.03262492
5.0033e-41 -0.022434115 -3.437e-42 0.026760994 0.009666242 -5.2676e-41 -0.004217884 -5.1817e-41
5.1796e-41 4.1283646e-38 -5.2126e-41 0.03187028 -0.09002985 -6.0327e-41 5.4872e-41 -0.028058277
-5.4756e-41 5.4571e-41 0.19261526 0.043395117 5.3277e-41 0.055807117 0.028631274 0.0053130486
