torch_data/sign_model.pt (torch, 851106 bytes, 22 tensors)

model.0.weight f4 [512, 63]
-0.047072537 0.051489063 -0.0550922 -0.010795738 0.042244278 -0.08269205 0.06195737 0.059223317
-0.0141889835 0.032062422 0.12385133 -0.0391217 0.01624519 0.24527007 0.017700091 -0.0653973
0.035584074 -0.016139666 -0.03936435 -0.08499853 -0.00016868614 -0.014770677 -0.090171166 0.03239784
-0.04066707 -0.14379716 0.057993602 -0.07678373 0.019635351 0.02372313 -0.06131775 -0.027390871
-0.042072143 -0.022611912 0.006949321 -0.037383184 -0.01476561 0.016359037 -0.01934365 -0.06947312
0.04584901 0.057080116 -0.036299538 -0.032096025 0.034973875 -0.039609637 0.034195703 0.012725432
0.009446336 0.082612015 -0.0022241317 -0.012168213 0.042894583 0.03959167 -0.036039554 -0.022495266
0.088468224 -0.03619845 -0.09468695 0.034996085 -0.047385357 -0.12459926 0.0014193583 -0.0449852
-0.033855874 -0.074411646 0.13528413 -0.11108498 -0.07685909 0.121720694 -0.19504723 0.009262209
0.026496729 -0.25603333 0.037981436 -0.29107642 -0.16376317 0.17038189 0.22127004 0.080448315
-0.12664635 0.09174776 -0.21817966 -0.12111943 -0.104889736 0.11098656 -0.061339203 -0.072019674
0.12201384 -0.028481303 0.09598036 0.088888586 -0.09766286 -0.009184654 -0.16731393 -0.16099967
-0.09374272 -0.16703357 -0.09186674 0.08427692 -0.311395 0.0017564079 -0.02635178 0.0511255
0.0031748624 -0.11660669 0.18147515 -0.11360665 -0.02483088 0.35191917 -0.103445135 0.091126226
0.27461264 0.13476151 -0.075929746 0.12493817 0.008544565 -0.09772807 0.064757556 0.110386476
-0.054126997 0.20345432 0.15334237 -0.05766662 0.038854036 0.30414024 0.002093522 -0.0005412692
-0.00437502 0.0020428959 -0.00084712455 0.004952182 0.0021679164 -0.0013664261 0.0067395363 0.0009677282
-0.0019031963 0.007518599 -0.0004700394 -0.00132702 0.008444807 0.004587409 -0.00064972887 0.0067603486
0.003920351 -0.0020875256 0.0053422824 0.0032304272 -0.0017265463 0.0052604396 0.0031372528 -0.0016682328
0.00562725 0.0044941786 -0.0006356034 0.0074848817 0.0032982237 -0.001775958 0.0054659164 0.0022891692
-0.001696025 0.005292858 0.0019412431 -0.0017994202 0.006028009 0.004046841 -0.0009328452 0.008049648
0.002431002 -0.0013267202 0.0062582344 0.0015207629 0.00010082863 0.0075019663 0.0012668126 0.00080179074
0.008559812 0.0034109403 -0.0015419867 0.008450219 0.0024316392 -0.0020457103 0.009229695 0.001641615
-0.0016775058 0.010701372 0.0013312146 -0.0018625024 0.011559139 0.061774816 0.10787655 -0.06833151
0.10226827 0.024779381 0.27026635 0.2988961 -0.19463497 0.0747316 -0.014771916 -0.15625004
-0.023895472 -0.47456798 0.18125325 -0.18467407 -0.044663623 0.040870845 0.14365707 -0.014495352
-0.015142165 0.13280255 -0.043433666 -0.05884522 0.11034805 0.06715717 -0.16703019 0.06407001
0.039875288 0.066458456 0.0036288174 -0.12626502 -0.08067952 -0.00041534888 0.07714319 0.18575478
-0.050063424 0.072880834 0.270115 -0.012392053 -0.018843 0.09290354 -0.027325697 -0.124123976
-0.13604042 -0.12161351 0.07914277 -0.10160206 -0.09511488 0.106398284 -0.029362328 -0.033934113
-0.1009324 0.1172535 -0.11390028 -0.008426033 0.07006516 -0.11488082 0.0021214993 0.1326406
-0.014504821 0.029399056 0.08603993 -0.017039016 -0.010540116 -0.046957333 -0.07192599 -0.0054311184
00000000: 22cf 40bd 32e6 523d 5ca8 61bd 9be0 30bc
00000010: 5608 2d3d 735a a9bd 03c7 7d3d 2694 723d
00000020: e978 68bc e353 033d c4a5 fd3d 133e 20bd
00000030: a214 853c 1428 7b3e c8ff 903c 05ef 85bd
00000040: 9bc0 113d 5537 84bc 833c 21bd b613 aebd
00000050: 57e1 30b9 b600 72bc a9ab b8bd 99b3 043d
00000060: 8392 26bd 903f 13be b38a 6d3d ca40 9dbd
00000070: 51da a03c 0257 c23c 5228 7bbd d262 e0bc
00000080: d753 2cbd 9e3c b9bc 21b7 e33b 1c1f 19bd
00000090: 75eb 71bc 6303 863c 9376 9ebc ec47 8ebd
000000a0: 2ccc 3b3d d7cc 693d d3ae 14bd 1f77 03bd
000000b0: c440 0f3d b73d 22bd cb10 0c3d 557e 503c
000000c0: cec4 1a3c 7d30 a93d bdc2 11bb 2f5d 47bc
000000d0: 3bb2 2f3d e02a 223d 369e 13bd fe47 b8bc
000000e0: d42e b53d d344 14bd 3beb c1bd 0e58 0f3d
000000f0: 2617 42bd e62d ffbd c309 ba3a 6742 38bd
00000100: 75ac 0abd 2265 98bd ec87 0a3e 8680 e3bd
00000110: 4c68 9dbd b348 f93d 76ba 47be 85c0 173c
00000120: ab0f d93c cd16 83be 6c92 1b3d f807 95be
00000130: 88b1 27be 9778 2e3e 9d94 623e 16c2 a43d
00000140: 95af 01be 40e6 bb3d 7d6a 5fbe 770d f8bd
00000150: 6ed0 d6bd ec4c e33d d13e 7bbd 0d7f 93bd
00000160: 64e2 f93d 9f51 e9bc 5a91 c43d 380b b63d
00000170: 7703 c8bd 3b7b 16bc 5854 2bbe 19dd 24be
00000180: 2ffc bfbd d90a 2bbe a124 bcbd 6199 ac3d
00000190: 2a6f 9fbe 4537 e63a b0df d7bc f968 513d
000001a0: 5a11 503b 7dcf eebd 9fd4 393e 9aaa e8bd
000001b0: 216a cbbc c02e b43e 0bdb d3bd 63a0 ba3d
000001c0: 079a 8c3e ecfe 093e 0e81 9bbd 95df ff3d
000001d0: 81fe 0b3c a825 c8bd 9c9f 843d 4e12 e23d
000001e0: 45b4 5dbd 5456 503e c805 1d3e d533 6cbd
000001f0: 6925 1f3d 45b8 9b3e 7933 093b f6e3 0dba
00000200: 545c 8fbb 1be2 053b 9111 5eba ea45 a23b
00000210: 9a13 0e3b a719 b3ba 54d7 dc3b 24af 7d3a
00000220: ac74 f9ba 945e f63b 9f6f f6b9 67ef adba
00000230: 165c 0a3c fa51 963b 9152 2aba ea85 dd3b
00000240: 4a76 803b dece 08bb 500e af3b 93b5 533b
00000250: 484d e2ba c45f ac3b 5e9a 4d3b 9ba8 daba
00000260: cb64 b83b e743 933b 9f9e 26ba bd43 f53b
00000270: 0327 583b 43c7 e8ba 6e1b b33b e305 163b
00000280: 284d deba b66f ad3b 4f71 fe3a 86da ebba
00000290: 9b86 c53b 5d9b 843b 2f8a 74ba ace2 033c
000002a0: 7251 1f3b 58e5 adba e011 cd3b 5654 c73a
000002b0: f573 d338 0ed3 f53b 2d0b a63a 442f 523a
000002c0: 743e 0c3c 158a 5f3b 7d1c caba ca72 0a3c
000002d0: 235c 1f3b 5311 06bb 2638 173c 752b d73a
000002e0: c1df dbba cf54 2f3c 267c ae3a 361f f4ba
000002f0: 8b62 3d3c 9707 7d3d 61ee dc3d 64f1 8bbd
00000300: 0772 d13d 21fe ca3c 5a60 8a3e e908 993e
00000310: 644e 47be e20c 993d e805 72bc 0300 20be
00000320: 70c0 c3bc 93fa f2be 749a 393e 331b 3dbe
00000330: 34f1 36bd 3068 273d d71a 133e ea7d 6dbc
00000340: d816 78bc 64fd 073e 80e7 31bd af07 71bd
00000350: 29fe e13d b389 893d f609 2bbe 2337 833d
00000360: 4554 233d 5f1b 883d 74d1 6d3b 9e4b 01be
00000370: 4e3b a5bd 2fc3 d9b9 40fd 9d3d 8036 3e3e
00000380: 4e0f 4dbd 8c42 953d 834c 8a3e 0a08 4bbc
00000390: a35c 9abc 3644 be3d 24da dfbc b634 febd
000003a0: 2e4e 0bbe 8110 f9bd 9b15 a23d be14 d0bd
000003b0: 97cb c2bd 58e7 d93d 4489 f0bc 7ffe 0abd
000003c0: a5b5 cebd 9a22 f03d 8d44 e9bd 580d 0abc
000003d0: 537e 8f3d a346 ebbd da08 0b3b f0d2 073e
000003e0: a1a5 6dbc 4ad6 f03c b435 b03d 6895 8bbc
000003f0: 73b0 2cbc 5556 40bd ef4d 93bd 86f7 b1bb

model.0.bias f4 [512]
5.6326957e-07 -1.919889e-07 -2.088519e-08 3.5725225e-06 -5.661897e-07 3.9636433e-07 1.4151724e-08 1.08261034e-07
-1.1431031e-06 5.9412e-41 -1.8288673e-06 8.8611654e-07 4.898447e-08 -2.17244e-06 5.9248e-41 -4.5077715e-07
-5.845689e-07 1.3443382e-06 9.199963e-06 -6.1173973e-06 1.0252128e-06 -1.7241102e-06 -3.3772917e-06 8.416281e-06
-5.5943e-41 2.2666999e-08 6.4513415e-07 4.9556e-41 -2.3367293e-06 1.2958742e-07 6.125852e-06 9.5853444e-08
-5.168e-41 1.0507222e-06 -5.202488e-06 8.161645e-06 -1.053944e-05 -1.6484395e-06 -6.297235e-06 -5.409083e-07
-8.5350064e-07 5.4156e-41 7.63816e-07 1.9442625e-06 -5.1128e-41 -3.2331802e-06 4.3410155e-06 -9.358405e-07
6.8456404e-07 1.11664356e-07 -2.1864786e-07 1.0543444e-06 2.2215502e-07 2.8576983e-06 2.964058e-07 -4.5395154e-07
-5.582e-41 -5.455e-41 5.918206e-08 5.722136e-08 5.3932e-41 -6.273433e-06 -1.4226028e-07 2.0657353e-06
6.039e-41 -7.892215e-07 -2.1293579e-06 2.884736e-07 1.8220696e-06 7.8371926e-07 -4.3600494e-06 1.0403047e-06
4.6295163e-06 -1.8148313e-06 -4.0602017e-06 -7.317557e-06 -9.2241953e-07 -4.2916042e-07 -1.6772841e-08 -2.7937501e-06
-6.723453e-06 -1.3070704e-07 -4.9691e-41 1.1458782e-07 6.7633624e-07 -6.079e-41 3.098933e-07 2.6429893e-06
-5.192337e-06 6.8879376e-07 -5.6707205e-07 6.8499634e-07 2.8988547e-06 -1.7066651e-06 -3.772748e-06 6.170972e-06
5.6700073e-06 -4.0814884e-06 -1.7878311e-06 6.1109e-41 1.3025549e-06 3.9182905e-06 -2.0345838e-06 2.049684e-06
-2.322539e-07 -7.682312e-07 -6.1084614e-07 2.866669e-06 1.2642403e-05 2.3114676e-08 2.7385929e-07 -6.1468e-41
2.2499632e-06 1.9112667e-06 -3.6034996e-06 1.9569081e-06 -5.9115e-41 -1.5173738e-06 -1.1331985e-06 4.6764612e-07
-5.2413e-41 -8.7805546e-08 -5.9296e-41 5.6818e-41 -5.0005e-41 -5.672e-41 -6.0999e-41 1.3161853e-06
-5.530667e-07 7.4278814e-09 -8.4867213e-07 1.8209981e-06 -1.9305832e-09 -1.4241316e-06 2.4716304e-08 -5.2627e-41
-1.7238535e-06 -1.1792371e-06 -1.1892233e-06 -9.5302685e-06 -7.434105e-07 -4.316401e-06 1.06638645e-07 -2.1453416e-06
-1.1381758e-05 2.335371e-06 7.5930307e-06 1.2060881e-06 -1.0097067e-06 5.7621196e-06 -5.3426e-41 -5.587756e-07
-1.8270064e-06 5.637e-41 5.6042524e-07 -2.999207e-07 1.6483569e-06 -1.3613908e-06 3.5735497e-06 3.9694893e-07
1.2212205e-06 5.269507e-07 5.1318e-41 5.212e-41 6.7847327e-06 -3.276685e-06 3.1112272e-06 5.11007e-07
5.428696e-07 8.351744e-06 2.6448902e-06 -7.3509323e-06 1.23653e-23 2.394291e-06 5.944e-41 2.2603638e-08
-2.9810865e-06 -1.4029833e-06 -8.5324615e-07 -1.9450022e-06 4.1155295e-06 -5.244e-41 -1.223415e-06 6.168143e-06
2.5143592e-07 -1.763537e-06 3.8850603e-06 -1.4712745e-06 3.3117428e-06 4.2275667e-07 -5.9196e-41 1.5670774e-06
3.6117879e-06 1.534448e-07 -2.084394e-06 6.203e-41 -6.2300805e-06 2.583576e-06 -1.2210476e-06 5.058578e-06
-1.8110947e-07 -7.991143e-06 5.071e-41 -6.8096256e-06 3.9822153e-06 -2.7098606e-06 -5.69946e-07 -3.15854e-07
-7.728313e-07 5.618e-41 -5.8039946e-06 -6.3633875e-06 9.572135e-07 2.5578881e-06 5.8672e-41 1.8896324e-06
4.15385e-09 -7.990951e-12 -8.6773053e-07 -6.3561674e-06 -5.8419e-41 -3.5291002e-06 -2.4451057e-07 4.711541e-06
-2.9963851e-07 2.2856743e-07 7.4161136e-08 8.88418e-07 7.6254105e-07 -7.15679e-06 7.168844e-07 -7.6941234e-08
-5.177722e-07 7.503123e-07 -2.7780563e-06 3.8020357e-06 5.818e-41 1.03958705e-07 5.726821e-07 5.9865e-41
-4.4397843e-06 -4.2087318e-06 2.4234303e-08 4.4436592e-06 -3.7506331e-06 5.3034e-41 1.5988282e-06 3.5090332e-07
8.8645334e-07 5.8545e-41 1.9040215e-06 -9.7805505e-06 1.8076582e-06 -1.9393515e-06 -6.3460755e-07 -9.93509e-06
00000000: 9733 1735 8225 4eb4 0567 b3b2 78bf 6f36
00000010: 43fc 17b5 e6cb d434 f11f 7332 227d e833
00000020: b96c 99b5 9ea5 0000 6777 f5b5 77dd 6d35
00000030: ff62 5233 3cca 11b6 29a5 0000 5702 f2b4
00000040: 45eb 1cb5 1c6f b435 8a59 1a37 0b44 cdb6
00000050: 0b9a 8935 fa67 e7b5 6ea5 62b6 a733 0d37
00000060: f29b 0080 42b5 c232 482d 2d35 248a 0000
00000070: b4d0 1cb6 b824 0b34 ab8c cd36 fdd7 cd33
00000080: 1090 0080 8a06 8d35 0891 aeb6 00ee 0837
00000090: 8dd2 30b7 f33f ddb5 d64c d3b6 ef32 11b5
000000a0: 1e1c 65b5 f796 0000 0909 4d35 2d7a 0236
000000b0: 868e 0080 9df9 58b6 0aa9 9136 7836 7bb5
000000c0: e2c2 3735 21cc ef33 77c5 6ab4 ff82 8d35
000000d0: 8289 6e34 e2c6 3f36 b421 9f34 a0b6 f3b4
000000e0: 9a9b 0080 1098 0080 5d2f 7e33 8dc3 7533
000000f0: 5796 0000 6180 d2b6 35c0 18b4 10a1 0a36
00000100: 58a8 0000 e3da 53b5 17e6 0eb6 82df 9a34
00000110: d68d f435 c760 5235 8a4c 92b6 99a0 8b35
00000120: 3e57 9b36 2195 f3b5 de3c 88b6 5689 f5b6
00000130: 309c 77b5 5c67 e6b4 de13 90b2 437c 3bb6
00000140: 069a e1b6 7a58 0cb4 858a 0080 5213 f633
00000150: 798d 3535 75a9 0080 695f a634 365e 3136
00000160: d639 aeb6 8ce5 3835 e538 18b5 97e0 3735
00000170: f289 4236 9110 e5b5 512f 7db6 3f10 cf36
00000180: fe40 be36 b8f3 88b6 69f5 efb5 59aa 0000
00000190: 72d3 ae35 dc79 8336 e289 08b6 4e8d 0936
000001a0: 7761 79b4 7238 4eb5 07f9 23b5 0061 4036
000001b0: b51a 5437 b68d c632 ef06 9334 59ab 0080
000001c0: 13fe 1636 5043 0036 a7d3 71b6 6d53 0336
000001d0: caa4 0080 91a8 cbb5 6718 98b5 cb10 fb34
000001e0: 1b92 0080 9c8f bcb3 4ba5 0080 639e 0000
000001f0: 658b 0080 1d9e 0080 0aaa 0080 c8a7 b035
00000200: 7476 14b5 5638 ff31 4ed0 63b5 0569 f435
00000210: 2eab 04b1 ca24 bfb5 ba4f d432 b492 0080
00000220: 285f e7b5 4746 9eb5 679d 9fb5 31e4 1fb7
00000230: c88e 47b5 9ad5 90b6 3701 e533 b0f8 0fb6
00000240: 47f4 3eb7 5eb9 1c36 a3c7 fe36 dfe0 a135
00000250: 4285 87b5 3b58 c136 ee94 0080 c4fe 15b5
00000260: 7637 f5b5 239d 0000 2170 1635 ca04 a1b4
00000270: 1d3d dd35 08b9 b6b5 1ed1 6f36 3f1c d534
00000280: d1e8 a335 c773 0d35 0e8f 0000 4a91 0000
00000290: 69a8 e336 05e5 5bb6 7aca 5036 222c 0935
000002a0: b7b9 1135 781e 0c37 de7e 3136 07a8 f6b6
000002b0: 002e 6f19 9bad 2036 b2a5 0000 ed29 c232
000002c0: ad0e 48b6 244e bcb5 a10a 65b5 e286 02b6
000002d0: 2118 8a36 2e92 0080 3834 a4b5 f2f7 ce36
000002e0: 17fd 8634 acb2 ecb5 6a5c 8236 9b78 c5b5
000002f0: 4f3f 5e36 3cf7 e234 04a5 0080 5f54 d235
00000300: 0b62 7236 96c2 2434 9ee1 0bb6 eaac 0000
00000310: fc0b d1b6 7f61 2d36 e0e2 a3b5 dbbc a936
00000320: fe76 42b4 b311 06b7 5c8d 0000 3d7e e4b6
00000330: f89e 8536 0ddb 35b6 64fe 18b5 a592 a9b4
00000340: 9074 4fb5 9b9c 0000 efbf c2b6 1585 d5b6
00000350: 9b79 8035 2fa8 2b36 8ea3 0000 469f fd35
00000360: a7b9 8e31 0b94 0cad fded 68b5 1047 d5b6
00000370: d9a2 0080 7bd5 6cb6 4745 83b4 d417 9e36
00000380: 01de a0b4 236c 7534 8442 9f33 9f7b 6e35
00000390: 6cb1 4c35 5c24 f0b6 ec6f 4035 e43a a5b3
000003a0: 09fd 0ab5 1269 4935 a56e 3ab6 7a26 7f36
000003b0: 2fa2 0000 e73f df33 6aba 1935 e1a6 0000
000003c0: 75f9 94b6 bb38 8db6 cc2b d032 be1a 9536
000003d0: 63b3 7bb6 d693 0000 5297 d635 c963 bc34
000003e0: 9cf4 6d35 33a3 0000 ae8d ff35 2517 24b7
000003f0: aa9e f235 ce25 02b6 e659 2ab5 e3ae 26b7

model.1.weight f4 [512]
0.21254826 0.4878591 0.005666709 0.39844006 0.1598636 0.41507614 0.024311924 0.11216995
0.59611917 -4.9125e-41 0.47502166 0.21643376 0.43212163 0.33892587 4.9855e-41 0.31648904
0.5944356 0.5408263 0.74791825 0.7817707 0.29439095 0.5624238 0.48159903 0.5536386
4.9379e-41 0.070479825 0.3446392 -4.9114e-41 0.55477536 0.39301822 0.61023444 0.03268919
4.9326e-41 0.33482304 0.6261025 0.5346373 0.50114954 0.3183087 0.6734535 0.3230137
0.46327153 -4.9355e-41 0.3505171 0.46635142 2.8944949e-05 0.553245 0.4643731 0.15577646
0.3549602 0.17174825 0.2854566 0.41480103 0.37363225 0.37850204 0.5398071 0.6616092
4.9282e-41 -4.9355e-41 0.20515476 0.21010448 -4.913e-41 0.64982647 0.41018343 0.47132716
-4.9125e-41 0.36051616 0.60252684 0.34497443 0.67713547 0.29855514 0.5712891 0.37815642
0.5458627 0.39550272 0.6783737 0.49787018 0.253416 0.23769829 0.12621492 0.581019
0.75449914 0.05927172 -4.9341e-41 0.2854853 0.3209167 -4.9218e-41 0.24679114 0.6653963
0.6193818 0.2863962 0.4506203 0.42378128 0.6442023 0.51465744 0.3746365 0.5072872
0.39812565 0.41393077 0.34739262 -4.9118e-41 0.7728137 0.40413952 0.3838589 0.49466336
0.6739693 0.3512582 0.41137516 0.48396945 0.6836007 0.26194906 0.2310526 5.0358e-41
0.43718243 0.2504397 0.65965205 0.3422397 4.9288e-41 0.41437852 0.37599015 0.40119722
4.9258e-41 0.10603036 4.9449e-41 -4.9473e-41 4.9314e-41 -4.9146e-41 4.936e-41 0.6171484
0.56363815 0.11519915 0.4236381 0.48986566 0.25103602 0.4083214 0.3273619 -4.94e-41
0.3586802 0.36776584 0.3664368 0.74394304 0.5311316 0.49898404 0.08840742 0.5407035
0.6675808 0.2871357 0.56655455 0.60591614 0.36130142 0.58283645 4.9277e-41 0.15378845
0.4776344 -4.9079e-41 0.25391904 0.44111145 0.33786434 0.2691291 0.419715 0.18187146
0.56567484 0.1970035 -4.9556e-41 -4.9099e-41 0.5146776 0.5114146 0.5462332 0.48411503
0.56116503 0.7679053 0.36769095 0.39438206 0.0030133165 0.48197436 -4.9366e-41 0.69239634
0.33813575 0.5757787 0.4803109 0.74839795 0.5972861 -4.9457e-41 0.37153307 0.52713776
0.16207309 0.6761855 0.5062877 0.32158414 0.4405952 0.3039828 -4.9492e-41 0.6209163
0.71429574 0.20322153 0.50697905 -4.9455e-41 0.4926479 0.49221307 0.4764826 0.5513728
0.31710127 0.41872144 5.5407e-41 0.5576981 0.5147618 0.35286465 0.23671359 0.559735
0.19626051 -4.9658e-41 0.5429562 0.71118265 0.25266427 0.4093079 -4.9515e-41 0.5134008
-0.00033450496 0.0036695874 0.6387782 0.48055378 -4.9101e-41 0.4050202 0.1596193 0.57330346
0.6100432 0.20342392 0.05869479 0.48284438 0.57343197 0.69678736 0.32761368 0.17545266
0.3344669 0.25892705 0.43531516 0.49867618 -4.9078e-41 0.18766133 0.35680893 5.9742e-41
0.63840306 0.6111402 0.042930778 0.5066975 0.54268473 -4.9118e-41 0.5408612 0.39991856
0.30513507 -4.911e-41 0.2583476 0.46694055 0.31228182 0.43873733 0.39524785 0.44172156
00000000: 40a6 593e abc8 f93e cdaf b93b 5600 cc3e
00000010: 49b3 233e dc84 d43e cd29 c73c 5cb9 e53d
00000020: 449b 183f f188 0080 0a36 f33e d0a0 5d3e
00000030: 0c3f dd3e b187 ad3e fa8a 0000 da0a a23e
00000040: ee2c 183f 9873 0a3f 9277 3f3f 2022 483f
00000050: 69ba 963e 02fb 0f3f 2694 f63e 42bb 0d3f
00000060: a689 0000 ba57 903d 8d74 b03e e988 0080
00000070: c205 0e3f af39 c93e 5338 1c3f 1ae5 053d
00000080: 8089 0000 ed6d ab3e 4148 203f fddd 083f
00000090: 564b 003f 5cf9 a23e 7367 2c3f 0d62 a53e
000000a0: ed31 ed3e 9589 0080 fa76 b33e 9dc5 ee3e
000000b0: cece f237 77a1 0d3f 50c2 ed3e dd83 1f3e
000000c0: 58bd b53e c6de 2f3e 5e27 923e cd60 d43e
000000d0: ba4c bf3e 05cb c13e cc30 0a3f 385f 293f
000000e0: 6189 0000 9589 0080 1714 523e a125 573e
000000f0: f488 0080 075b 263f 9003 d23e cb51 f13e
00000100: f188 0080 9395 b83e 333f 1a3f 7da0 b03e
00000110: c058 2d3f 38dc 983e 0140 123f b89d c13e
00000120: a8bd 0b3f 557f ca3e e6a9 2d3f d7e8 fe3e
00000130: bebf 813e 2e67 733e 7c3e 013e a9bd 143f
00000140: db26 413f e7c6 723d 8b89 0080 212b 923e
00000150: 324f a43e 3389 0080 d1b6 7c3e 6957 2a3f
00000160: ce8f 1e3f 86a2 923e b4b7 e63e dcf9 d83e
00000170: 71ea 243f 97c0 033f 5bd0 bf3e 93dd 013f
00000180: 20d7 cb3e bcee d33e 72dd b13e ec88 0080
00000190: 1ed7 453f 60eb ce3e 2789 c43e 8444 fd3e
000001a0: 4189 2c3f 1dd8 b33e c49f d23e d8ca f73e
000001b0: 7500 2f3f 301e 863e 0e99 6c3e 618c 0000
000001c0: 60d6 df3e a239 803e f5de 283f 0b3a af3e
000001d0: 6589 0000 6c29 d43e c881 c03e b969 cd3e
000001e0: 5089 0000 7226 d93d d889 0000 e989 0080
000001f0: 7889 0000 0089 0080 9889 0000 70fd 1d3f
00000200: 974a 103f 88ed eb3d 18e7 d83e accf fa3e
00000210: cb87 803e 810f d13e fb9b a73e b589 0080
00000220: eea4 b73e ce4b bc3e 9b9d bb3e 0d73 3e3f
00000230: 3ef8 073f d67a ff3e f30e b53d 8b6b 0a3f
00000240: 93e6 2a3f 7303 933e b809 113f 521d 1b3f
00000250: 80fc b83e c534 153f 5d89 0000 b87a 1d3e
00000260: 7f8c f43e d088 0080 ad01 823e 5cd9 e13e
00000270: 8efc ac3e 4acb 893e e2e4 d63e 833c 3a3e
00000280: 11d0 103f 49bb 493e 248a 0080 de88 0080
00000290: e9c1 033f 11ec 023f f0d5 0b3f eddd f73e
000002a0: 83a8 0f3f 7195 443f fd41 bc3e 72ec c93e
000002b0: 107b 453b 58c5 f63e 9d89 0080 e340 313f
000002c0: 2120 ad3e 3c66 133f 4feb f53e 0297 3f3f
000002d0: bee7 183f de89 0080 9539 be3e 80f2 063f
000002e0: 7df6 253e 7e1a 2d3f 129c 013f ada6 a43e
000002f0: b295 e13e a2a3 9b3e f789 0080 5ff4 1e3f
00000300: 16dc 363f 4e19 503e 61c9 013f dc89 0080
00000310: 583c fc3e 5a03 fc3e 87f5 f33e c526 0d3f
00000320: 195b a23e a862 d63e 749a 0000 4dc5 0e3f
00000330: 6ec7 033f adaa b43e 0c65 723e cb4a 0f3f
00000340: 84f8 483e 6d8a 0080 2dff 0a3f 1110 363f
00000350: 365d 813e ce90 d13e 078a 0080 3c6e 033f
00000360: 7f60 afb9 767d 703b f886 233f 250b f63e
00000370: e088 0080 cf5e cf3e 3e73 233e 04c4 123f
00000380: cb2b 1c3f 5c4e 503e f369 703d 6137 f73e
00000390: 70cc 123f a860 323f fbbc a73e dda9 333e
000003a0: 3f3f ab3e 1692 843e a1e1 de3e 7c52 ff3e
000003b0: cf88 0080 4b2a 403e a9af b63e 89a6 0000
000003c0: 626e 233f af73 1c3f 2fd8 2f3d edb6 013f
000003d0: 63ed 0a3f ec88 0080 e175 0a3f 20c2 cc3e
000003e0: aa3a 9c3e e688 0080 2346 843e d512 ef3e
000003f0: 67e3 9f3e 2ea2 e03e ed5d ca3e 5429 e23e

model.1.bias f4 [512]
-0.036208265 -0.02236368 0.014160169 -0.063142434 -0.1651415 0.005737926 -0.03274007 -0.09368538
-0.09008594 -4.9092e-41 -0.08925212 -0.2337755 -0.07647195 0.018979605 1.476498e-14 0.03757308
-0.116791464 0.0030073798 -0.16160817 -0.12821293 -0.24972986 -0.15645005 0.040406045 -0.014236632
-4.9055e-41 -0.08199915 -0.066309765 -4.906e-41 -0.10506728 0.052750632 -0.08848583 -0.04606921
-4.913e-41 -0.31916428 -0.08207087 0.06032093 -0.091685236 -0.14376341 -0.2034501 -0.059271343
-0.35466814 -4.9246e-41 -0.050605416 -0.0073979674 -1.8590676e-05 0.061820485 -0.10206086 -0.073621176
0.022508796 -0.050097186 -0.23770855 -0.094122425 -0.24425033 -0.070190206 -0.12532379 -0.10434367
-4.9118e-41 -4.949e-41 -0.17288643 -0.20907073 -4.9714e-41 -0.07637878 -0.17382517 -0.0575519
-5.1135e-41 -0.049684852 -0.010074256 0.095670976 0.04696986 -0.1929387 0.007561947 -0.18070512
-0.084595665 0.06982573 -0.050955728 -0.14104934 0.076166965 -0.16987984 -0.12353351 0.0066569163
-0.19829671 -0.051267672 -4.9385e-41 -0.1354313 -0.15134484 -4.9487e-41 -0.08126038 0.002241598
0.0026649975 -0.0050697685 -0.22125578 -0.13952276 -0.09197967 -0.023016525 -0.08976355 -0.10889171
-0.022474246 -0.060987327 -0.12493908 -4.9485e-41 -0.33023402 0.045610446 -0.13677166 -0.07120381
-0.036470573 -0.17063628 -0.22907588 -0.08947066 -0.09595272 -0.13285476 -0.17681453 -4.138486e-36
0.06155807 -0.0143099055 -0.08097686 -0.15141249 -5.1718e-41 -0.031008447 -0.100575544 -0.02075611
-4.9052e-41 -0.12743337 -5.568e-41 -4.932e-41 -4.9087e-41 -4.9397e-41 -4.9285e-41 -0.17850408
-0.06257455 -0.14008453 0.02776173 0.03704079 -0.01128959 0.009544854 -0.13081999 -4.9448e-41
0.040149655 -0.0061164373 -0.012499986 -0.110840686 -0.09503178 -0.04879226 -0.08819597 -0.04879953
-0.3008959 0.029529084 -0.15950279 -0.11678619 0.024194447 -0.14657968 -4.952e-41 -0.12058313
0.013744892 -4.9505e-41 -0.15842174 -0.0059842844 -0.11780344 0.06939798 -0.05386182 -0.20378482
-0.05696727 -0.059363738 -4.919e-41 -5.2316e-41 -0.093432866 -0.043549098 -0.07985619 0.07274587
0.0020868853 -0.22824576 -0.068580456 -0.08188681 -0.010464697 -0.20727588 -4.9883e-41 -0.20789707
-0.09731639 -0.079600215 -0.056158446 -0.080205105 0.0010227257 -4.9326e-41 -0.2918556 -0.049149822
-0.11926473 -0.2201458 -0.036642235 -0.0009832156 -0.08028154 -0.22514488 -5.985e-41 0.05509079
-0.23557933 -0.14940888 -0.06923929 -4.9393e-41 0.10390835 0.020981515 0.0023876594 -0.024798758
-0.26258612 0.07747588 -1.365085e-36 0.023222785 -0.00022481913 -0.10724498 -0.11797746 -0.2959376
-0.16319959 -1.25528e-14 0.07207782 -0.17174174 -0.091226645 -0.017261704 -4.9542e-41 0.0014876893
0.07394064 -0.0087888315 -0.09883301 -0.04483405 -4.9345e-41 -0.057031166 -0.12809429 -0.097639486
-0.20971914 0.0062613087 -0.04774635 -0.049625974 -0.16069609 -0.12395277 -0.15718558 -0.028885756
0.059674144 -0.20433572 -0.090422824 -0.0053973366 -4.922e-41 -0.15687104 -0.16524063 -5.644e-41
-0.053202476 -0.08176858 -0.04631334 -0.0070284475 -0.085100584 -4.9361e-41 -0.06294068 -0.20557295
-0.13158774 -4.9438e-41 -0.065383464 -0.016710913 -0.13831355 0.03953749 -0.06885674 0.16234374
00000000: 1e4f 14bd 0934 b7bc 0e00 683c d250 81bd
00000010: da1a 29be 3605 bc3b 741a 06bd 1fde bfbd
00000020: fa7e b8bd d988 0080 d1c9 b6bd d862 6fbe
00000030: 539d 9cbd 1e7b 9b3c bafd 8428 3be6 193d
00000040: 5d30 efbd 7617 453b 9d7c 25be 404a 03be
00000050: 2fb9 7fbe 7134 20be cf80 253d c340 69bc
00000060: bf88 0080 2cef a7bd 6acd 87bd c288 0080
00000070: 842d d7bd 0c11 583d 0f38 b5bd 11b3 3cbd
00000080: f488 0080 8069 a3be c614 a8bd 1413 773d
00000090: 78c5 bbbd b736 13be 3955 50be 82c6 72bd
000000a0: 1097 b5be 4789 0080 a047 4fbd a66a f2bb
000000b0: 2cf3 9bb7 7a37 7d3d 4905 d1bd b3c6 96bd
000000c0: 5e64 b83c b532 4dbd df69 73be 42c3 c0bd
000000d0: c21c 7abe e2bf 8fbd e154 00be 22b2 d5bd
000000e0: ec88 0080 f589 0080 2409 31be a316 56be
000000f0: 958a 0080 7a6c 9cbd 3aff 31be 8bbb 6bbd
00000100: 8b8e 0080 5882 4bbd 7e0e 25bc 25ef c33d
00000110: 7863 403d b991 45be 36ca f73b c30a 39be
00000120: 7e40 adbd cb00 8f3d f4b6 50bd 3d6f 10be
00000130: 6dfd 9b3d fbf4 2dbe 23ff fcbd 4322 da3b
00000140: 4b0e 4bbe 0dfe 51bd aa89 0080 81ae 0abe
00000150: 24fa 1abe f389 0080 d86b a6bd c6e7 123b
00000160: 3da7 2e3b 4d20 a6bb e090 62be 0edf 0ebe
00000170: d65f bcbd 278d bcbc f4d5 b7bd 9e02 dfbd
00000180: e91b b8bc d9cd 79bd 0fe0 ffbd f289 0080
00000190: 6f14 a9be 05d2 3a3d df0d 0cbe 4ed3 91bd
000001a0: 2b62 15bd 47bb 2ebe de92 6abe 653c b7bd
000001b0: dc82 c4bd 140b 08be de0e 35be 1f08 b084
000001c0: 5124 7c3d 1874 6abc 32d7 a5bd e00b 1bbe
000001d0: 2b90 0080 6d05 febc 8dfa cdbd b808 aabc
000001e0: bd88 0080 e57d 02be 379b 0080 7c89 0080
000001f0: d688 0080 b389 0080 6389 0080 c6c9 36be
00000200: 1627 80bd 5272 0fbe 916c e33c 15b8 173d
00000210: f9f7 38bc 0562 1c3c adf5 05be d789 0080
00000220: f773 243d 656c c8bb becc 4cbc 7100 e3bd
00000230: 06a0 c2bd 65da 47bd 17a0 b4bd 04e2 47bd
00000240: 070f 9abe fae6 f13c b354 23be 992d efbd
00000250: 6f33 c63c fc18 16be 0b8a 0080 4af4 f6bd
00000260: 4132 613c 008a 0080 4f39 22be d117 c4bb
00000270: ee42 f1bd 8720 8e3d 369e 5cbd f8ac 50be
00000280: 8356 69bd 6427 73bd 1f89 0080 d691 0080
00000290: bb59 bfbd 8a60 32bd a48b a3bd c9fb 943d
000002a0: 20c4 083b 42b9 69be e973 8cbd 46b4 a7bd
000002b0: 1f74 2bbc 2140 54be 0e8b 0080 f8e2 54be
000002c0: d14d c7bd 7005 a3bd 6606 66bd 9342 a4bd
000002d0: fb0c 863a 8089 0080 196e 95be 5351 49bd
000002e0: 1141 f4bd e76d 61be 2b16 16bd 3edf 80ba
000002f0: a66a a4bd 618c 66be d6a6 0080 e1a6 613d
00000300: b53b 71be a4fe 18be 54cd 8dbd b089 0080
00000310: e7cd d43d 6de1 ab3c 477a 1c3b c426 cbbc
00000320: b071 86be adab 9e3d d641 e883 b63d be3c
00000330: 6dbd 6bb9 42a3 dbbd 2b9e f1bd 2285 97be
00000340: cb1d 27be 9221 62a8 899d 933d 11dd 2fbe
00000350: 09d5 babd 6b68 8dbc 1a8a 0080 92fe c23a
00000360: 316e 973d 08ff 0fbc f668 cabd e9a3 37bd
00000370: 8e89 0080 8399 69bd 262b 03be 36f7 c7bd
00000380: 9dc0 56be aa2b cd3b ad91 43bd 9b44 4bbd
00000390: 848d 24be f3da fdbd 42f5 20be d2a1 ecbc
000003a0: e06c 743d 623d 51be 9a2f b9bd 24dc b0bb
000003b0: 3589 0080 cda2 20be d734 29be 559d 0080
000003c0: d7ea 59bd 4976 a7bd 0fb3 3dbd e44e e6bb
000003d0: 3749 aebd 9989 0080 0be7 80bd b781 52be
000003e0: f0be 06be d089 0080 c4e7 85bd 53e5 88bc
000003f0: 11a2 0dbe 10f2 213d c304 8dbd 703d 263e

model.1.running_mean f4 [512]
0.035163783 0.028096814 0.0017382421 0.0023881726 -0.02514823 -0.012655561 0.0038643687 0.011366135
0.0019966457 7.4012e-41 -0.016804112 -0.04111935 -0.030311262 -0.009373674 6.7463e-41 -0.027563628
0.027223887 -0.043646995 -0.002255922 -0.020223565 0.046402458 0.012248777 -0.0037943579 -0.0050470065
-5.3105e-41 0.013413662 0.037590895 -6.9489e-41 0.020819742 0.02331216 -0.027149912 -0.008918668
-4.137e-42 0.009338358 -0.00065458287 -0.022590406 -0.047573887 0.027367918 0.036417305 0.050043024
-0.00048571703 5.5033e-41 0.019237388 -0.008945423 -1.67595e-40 0.024304776 0.030736499 -0.02498594
0.045635972 -0.032746643 0.033021 -0.013820355 0.065862596 -0.0420954 -0.007244257 0.013527039
-4.428e-41 -5.6328e-41 0.024544656 -0.011905131 1.2062e-41 0.012965569 -0.063374154 0.03076634
3.7155e-41 0.04633492 -0.016085226 -0.0014418206 -0.0019302281 0.061003745 0.019548276 -0.054272775
-0.024082944 -0.018771237 -0.039361548 -0.029712087 0.03193874 -0.026411885 0.0030097433 0.016487144
-0.012392009 0.012637839 -1.6111e-41 0.042427026 -0.06884485 -1.01816e-40 -0.040890932 -0.003114981
0.017845893 0.0054066507 -0.05979878 0.0040716357 -0.03390403 0.011264336 0.012245229 0.025885483
-0.0042388528 -0.039969515 -0.017908316 1.37125e-40 -0.0024457695 -0.004382215 -0.014590976 0.03204449
-0.016673585 -0.056720022 0.03869371 -0.010041743 -0.0010753358 0.038145877 0.02910065 -6.4705e-41
-0.017128116 -0.02374912 -0.059362907 0.01996651 -7.05e-43 0.030555861 -0.000377088 -0.0029481929
3.3733e-41 -0.019513642 -7.2823e-41 5.5693e-41 5.6364e-41 -3.3847e-41 -1.4122e-41 -0.013372292
-0.022764644 -0.017342752 0.0073933857 0.024397254 0.00718859 0.019956164 0.046275154 -1.77948e-40
0.012918386 0.026849283 -0.03045875 -0.03465712 -0.0036431074 0.0015857872 -0.01464544 -0.016613461
-0.018771686 -0.06408023 -0.019488482 0.020646768 0.028457368 -0.024359774 -4.0653e-41 -0.035010766
0.052472044 6.3494e-41 -0.020772766 0.012038883 0.0027048872 0.0073050703 0.027512027 -0.018342264
0.0043026153 -0.06428132 7.1416e-41 -2.2111e-41 0.012832769 0.018935762 0.0052157994 -0.00445636
0.047419757 0.044188138 0.020692296 0.014987517 0.00029598278 0.0060990253 9.1289e-41 0.050880954
-0.008371919 0.002804179 0.024813186 -0.013732099 -0.008260199 -6.0141e-41 0.03429971 0.028490454
-0.024764342 -0.034108736 -0.01576287 0.032408714 0.010877267 0.05137613 -1.4307e-41 -0.0065653953
0.0014401835 0.030405127 -0.0135170845 7.0592e-41 -0.03468696 -0.010094523 -0.0035068311 0.0010832688
0.00541399 0.036729213 2.4076e-41 -0.037767537 0.016720587 -0.045548026 0.058103915 -0.043228183
-0.022989051 7.3165e-41 -0.029205369 0.041630276 0.028485158 0.009052163 1.16631e-40 0.020513438
-0.0028960463 -0.00026896514 0.019107888 0.017382877 2.6433e-41 -0.021916408 0.0069839424 -0.0047189007
0.047843017 0.005832443 -0.0067279744 0.01817982 0.031667262 -0.005174774 -0.06517855 0.031325977
0.011223078 0.037504964 -0.025151027 -0.043240953 -4.63e-42 -0.024514465 0.03285322 -4.1334e-41
-0.02408009 0.03792066 0.011234015 0.052700177 -0.009362175 -7.421e-42 -0.0435039 -0.031441033
-0.01518979 1.3188e-41 -0.010254005 -0.03389767 -0.009678524 0.028567525 -0.008970214 -0.021221468
00000000: e607 103d 4a2b e63c bad5 e33a e382 1c3b
00000010: a903 cebc 4559 4fbc 5941 7d3b 0739 3a3c
00000020: 28da 023b 51ce 0000 c7a8 89bc c36c 28bd
00000030: 534f f8bc 0a94 19bc 0fbc 0000 1ecd e1bc
00000040: a104 df3c 31c7 32bd 17d8 13bb e4ab a5bc
00000050: 8110 3e3d 18af 483c c3aa 78bb 5c61 a5bb
00000060: 0994 0080 fac4 5b3c e9f8 193d b5c1 0080
00000070: 2a8e aa3c 25f9 be3c 7e69 debc 9b1f 12bc
00000080: 880b 0080 eaff 183c 5098 2bba 840f b9bc
00000090: d6dc 42bd af32 e03c 502a 153d eaf9 4c3d
000000a0: d6a7 feb9 6999 0000 ba97 9d3c d38f 12bc
000000b0: 30d3 0180 cf1a c73c 1ccb fb3c 50af ccbc
000000c0: c9ec 3a3d 5821 06bd 0741 073d c56e 62bc
000000d0: f8e2 863d 3a6c 2cbd 3b61 edbb 84a0 5d3c
000000e0: 6f7b 0080 059d 0080 e011 c93c bd0d 43bc
000000f0: a021 0000 8a6d 543c 4fca 81bd b109 fc3c
00000100: 9367 0000 afc9 3d3d 2ac5 83bc 79fb bcba
00000110: b5ff fcba 10df 793d b523 a03c 214d 5ebd
00000120: 9849 c5bc 23c6 99bc 9339 21bd c366 f3bc
00000130: 32d2 023d bd5d d8bc 1d3f 453b 0c10 873c
00000140: da07 4bbc f00e 4f3c e92c 0080 f6c7 2d3d
00000150: 87fe 8cbd d21b 0180 407d 27bd b624 4cbb
00000160: 8d31 923c 462a b13b 91ef 74bd 5b6b 853b
00000170: f4de 0abd 0d8e 383c 37a0 483c cb0d d43c
00000180: 13e6 8abb 13b7 23bd 76b4 92bc 407e 0100
00000190: 3449 20bb af98 8fbb fd0e 6fbc 1541 033d
000001a0: 0b97 88bc 4153 68bd 4c7d 1e3d 1f86 24bc
000001b0: 48f2 8cba da3e 1c3d 7d64 ee3c 5fb4 0080
000001c0: 4350 8cbc 848d c2bc 8526 73bd ce90 a33c
000001d0: f701 0080 4950 fa3c e5b3 c5b9 7836 41bb
000001e0: 095e 0000 13db 9fbc 00cb 0080 409b 0000
000001f0: 1f9d 0000 5a5e 0080 5e27 0080 7517 5bbc
00000200: eb7c babc 6312 8ebc 3744 f23b c0dc c73c
00000210: 438e eb3b 1c7b a33c 048b 3d3d 0cf0 0180
00000220: a3a7 533c 07f3 db3c a184 f9bc a0f4 0dbd
00000230: 33c1 6ebb 30da cf3a 6df3 6fbc f418 88bc
00000240: 14c7 99bc 7f3c 83bd 4fa6 9fbc 6923 a93c
00000250: 6d1f e93c 268e c7bc 5371 0080 7367 0fbd
00000260: edec 563d ffb0 0000 a62b aabc bc3e 453c
00000270: 7a44 313b 5f5f ef3b e760 e13c 8442 96bc
00000280: f4fc 8c3b eda5 83bd 14c7 0000 a33d 0080
00000290: 8940 523c 2c1f 9b3c 4ce9 aa3b a806 92bb
000002a0: 383b 423d 9ffe 343d e482 a93c 348e 753c
000002b0: 232e 9b39 55da c73b 7afe 0000 8c68 503d
000002c0: 602a 09bc 51c6 373b 0645 cb3c 99fc 60bc
000002d0: c955 07bc a6a7 0080 da7d 0c3d d064 e93c
000002e0: 97de cabc 9ab5 0bbd 2221 81bc 00bf 043d
000002f0: 9136 323c c76f 523d e227 0080 8722 d7bb
00000300: 8ac4 bc3a 2c14 f93c c376 5dbc c8c4 0000
00000310: ea13 0ebd 8063 25bc ddd2 65bb 78fc 8d3a
00000320: d767 b13b 5f71 163d 1d43 0000 22b2 1abd
00000330: 9df9 883c 9190 3abd 5ffe 6d3d 0910 31bd
00000340: 8953 bcbc f4cb 0000 1940 efbc 8284 2a3d
00000350: b559 e93c 864f 143c 1f45 0100 cc0b a83c
00000360: 98cb 3dbb e403 8db9 2588 9c3c 8966 8e3c
00000370: af49 0000 0a8a b3bc 8ed9 e43b 02a1 9abb
00000380: 0af7 433d 141e bf3b 5776 dcbb d9ed 943c
00000390: 88b5 013d 2791 a9bb 557c 85bd ab4f 003d
000003a0: 00e1 373c ce9e 193d 8709 cebc 6d1d 31bd
000003b0: e80c 0080 8fd2 c8bc 1991 063d 3973 0080
000003c0: 9c43 c5bc b252 1b3d e00e 383c 24dc 573d
000003d0: cf63 19bc b014 0080 2531 32bd 50c8 00bd
000003e0: 99de 78bc c324 0000 6a00 28bc 49d8 0abd
000003f0: ac92 1ebc 7106 ea3c cef7 12bc a5d8 adbc

model.1.running_var f4 [512]
0.3565415 0.7287869 0.018097881 0.45205966 0.19580537 0.224156 0.0054394226 0.05439294
0.7672764 6e-45 0.8480234 0.39220124 0.583944 0.8131103 6e-45 0.32819405
0.6058947 0.3692129 0.58336216 0.40545744 0.5104758 0.28605118 0.5939361 0.58168024
6e-45 0.032696623 0.5927886 6e-45 0.5749841 0.89971095 0.24024725 0.017155476
6e-45 0.6913113 0.4964849 0.27588156 0.7364616 0.85471356 0.48782578 0.78122073
0.53951514 6e-45 0.37908742 0.89717066 6e-45 0.3008464 0.5131644 0.24112657
0.75835073 0.4585039 0.95410067 0.7455782 1.5435613 0.3627043 1.250121 0.33530018
6e-45 6e-45 0.18500578 0.1333702 6e-45 0.22998829 1.7230984 0.53158516
6e-45 0.5385183 0.20139623 1.0350535 0.30597192 0.88185006 0.42818466 0.87930787
0.7296843 0.5348258 0.30698732 0.30830818 0.8601316 0.33805 0.055387456 0.30261728
0.47181693 0.034504917 6e-45 0.57700723 1.2429801 6e-45 0.76172715 0.4210904
0.40225 0.65353084 0.6811263 0.9520092 0.495387 0.2414898 0.5871202 0.21921158
0.8662217 0.8649965 0.6067102 6e-45 0.7304864 0.76262885 0.44056466 0.59855956
0.28033167 1.6168464 1.1147162 0.34282753 0.2869402 0.60983783 0.49315727 6e-45
0.4365141 0.67112017 0.69844973 0.49614766 6e-45 1.0109125 0.3656877 0.6435134
6e-45 0.08402398 6e-45 6e-45 6e-45 6e-45 6e-45 0.87902915
0.5977751 0.07974809 0.5243719 0.336097 0.8864639 0.67462796 0.95885676 6e-45
0.4038526 0.47024825 0.6258626 0.27303526 0.5063825 0.48098534 0.06179882 0.3220324
0.46199676 1.203796 0.37893108 0.32736117 1.0733407 0.60684365 6e-45 0.3941751
0.34720916 6e-45 0.36365378 1.1387753 0.6618948 0.5752856 0.36812907 0.14102638
0.3198932 0.7920926 6e-45 6e-45 0.36683214 0.58337015 0.50571746 0.4494794
0.26661482 0.40338552 1.0558897 0.5273424 8.810407e-05 0.42129487 6e-45 0.58887774
0.61529356 0.22705111 0.68654907 0.2730277 0.37310264 6e-45 0.55194366 0.33488435
0.16412246 1.05987 0.3373056 0.6238512 1.0091324 0.6386237 6e-45 0.4886543
0.46701822 0.33627978 0.78265613 6e-45 0.43644488 0.34123728 0.37362626 0.6777456
0.89382076 0.52118677 6e-45 0.69605494 0.7737382 0.5765193 0.48128346 2.283761
0.33961222 6e-45 0.24717417 0.32196364 0.56713945 0.27555203 6e-45 0.39059284
0.0066882814 8.896733e-05 0.43462217 0.5552429 6e-45 0.64015704 0.11675967 0.27755636
0.56651276 0.33791256 0.032270208 0.37089866 1.0552199 0.33462295 0.7665431 0.43903077
0.3360803 0.57659334 0.41596276 0.8452623 6e-45 0.18675773 0.355914 6e-45
0.4262118 0.49347818 0.032014262 0.3280517 1.1351396 6e-45 0.32595608 0.5855378
0.6435547 6e-45 0.2576441 0.43342677 0.49510053 0.61159915 0.6580865 0.4026931
00000000: 9c8c b63e c791 3a3f 0242 943c 5d74 e73e
00000010: 3481 483e 2789 653e 2f3d b23b 22cb 5e3d
00000020: 3a6c 443f 0400 0000 1018 593f 9ace c83e
00000030: 5b7d 153f ff27 503f 0400 0000 0d09 a83e
00000040: ea1b 1b3f 7909 bd3e 3957 153f 1e98 cf3e
00000050: 8bae 023f 4d75 923e 320c 183f ffe8 143f
00000060: 0400 0000 e5ec 053d fec0 173f 0400 0000
00000070: 2832 133f 7553 663f 6003 763e a489 8c3c
00000080: 0400 0000 c7f9 303f 4533 fe3e 5940 8d3e
00000090: bf88 3c3f 82ce 5a3f 4dc4 f93e 15fe 473f
000000a0: aa1d 0a3f 0400 0000 bf17 c23e faac 653f
000000b0: 0400 0000 8a08 9a3e be5e 033f e2e9 763e
000000c0: 4623 423f 06c1 ea3e f13f 743f 37de 3e3f
000000d0: 6b93 c53f 61b4 b93e f703 a03f 77ac ab3e
000000e0: 0400 0000 0400 0000 2872 3d3e 3392 083e
000000f0: 0400 0000 0d82 6b3e 7d8e dc3f f715 083f
00000100: 0400 0000 56dc 093f d03a 4e3e a27c 843f
00000110: 5aa8 9c3e edc0 613f 053b db3e 521a 613f
00000120: 97cc 3a3f 58ea 083f 712d 9d3e 92da 9d3e
00000130: 9631 5c3f e414 ad3e f5dd 623d a7f0 9a3e
00000140: fd91 f13e 0755 0d3d 0400 0000 bfb6 133f
00000150: f919 9f3f 0400 0000 8d00 433f 2999 d73e
00000160: b6f3 cd3e cc4d 273f 4b5e 2e3f e0b6 733f
00000170: 5da3 fd3e 1a49 773e 824d 163f 0079 603e
00000180: b5c0 5d3f 6970 5d3f 5c51 1b3f 0400 0000
00000190: 2801 3b3f a53b 433f b191 e13e 333b 193f
000001a0: a287 8f3e d3f4 ce3f 05af 8e3f 1787 af3e
000001b0: d3e9 923e 551e 1c3f 1c7f fc3e 0400 0000
000001c0: c77e df3e 88ce 2b3f 9acd 323f 1107 fe3e
000001d0: 0400 0000 9565 813f 6b3b bb3e 4bbd 243f
000001e0: 0400 0000 c414 ac3d 0400 0000 0400 0000
000001f0: 0400 0000 0400 0000 0400 0000 0e08 613f
00000200: ca07 193f f752 a33d 3d3d 063f e814 ac3e
00000210: 4cef 623f 6bb4 2c3f a377 753f 0400 0000
00000220: c5c5 ce3e 61c4 f03e 8838 203f 47cb 8b3e
00000230: 49a2 013f b643 f63e c220 7d3d 6ee1 a43e
00000240: d78a ec3e fd15 9a3f 4103 c23e e29b a73e
00000250: 3a63 893f 1b5a 1b3f 0400 0000 52d1 c93e
00000260: 66c5 b13e 0400 0000 d430 ba3e 64c3 913f
00000270: f071 293f eb45 133f 6a7b bc3e 3869 103e
00000280: 0bc9 a33e 95c6 4a3f 0400 0000 0400 0000
00000290: 6cd1 bb3e bf57 153f b376 013f 2a22 e63e
000002a0: bd81 883e 8c88 ce3e 6527 873f e9ff 063f
000002b0: 83c4 b838 f6b3 d73e 0400 0000 b1c0 163f
000002c0: e183 1d3f 1680 683e aec1 2f3f 49ca 8b3e
000002d0: 4f07 bf3e 0400 0000 2e4c 0d3f f675 ab3e
000002e0: b80f 283e d2a9 873f 52b3 ac3e b6b4 1f3f
000002f0: 402b 813f d87c 233f 0400 0000 e530 fa3e
00000300: 031d ef3e dd2c ac3e 275c 483f 0400 0000
00000310: b475 df3e a7b6 ae3e f14b bf3e bc80 2d3f
00000320: 70d1 643f 7f6c 053f 0400 0000 a830 323f
00000330: b513 463f c596 133f c96a f63e 2429 1240
00000340: a7e1 ad3e 0400 0000 3a1b 7d3e 6bd8 a43e
00000350: 0d30 113f 2815 8d3e 0400 0000 c9fb c73e
00000360: 5f29 db3b f993 ba38 cc86 de3e 6624 0e3f
00000370: 0400 0000 55e1 233f b21f ef3d de1b 8e3e
00000380: fb06 113f e002 ad3e c42d 043d 6ee6 bd3e
00000390: 7211 873f b353 ab3e 2b3c 443f a4c8 e03e
000003a0: b812 ac3e 9f9b 133f 12f9 d43e 1c63 583f
000003b0: 0400 0000 6b3d 3f3e 5c3a b63e 0400 0000
000003c0: 6f38 da3e 2ca9 fc3e 6321 033d 64f6 a73e
000003d0: 414c 913f 0400 0000 b7e3 a63e cee5 153f
000003e0: 00c0 243f 0400 0000 ede9 833e 1dea dd3e
000003f0: d17d fd3e c391 1c3f 5b78 283f ca2d ce3e

model.4.weight f4 [256, 512]
-0.028402612 -0.0912577 -0.005822875 -0.06843604 0.0017965235 -0.0044313436 -0.00029080914 -0.0046807765
0.0041846354 -5.3472e-41 -0.05353934 -0.018465465 0.037333556 0.06186568 -1.0830921e-15 0.0122720925
-0.06414041 -0.043078918 -0.046757687 0.08484044 -0.023382979 -0.015854249 0.062502295 -0.063921764
4.9184e-41 -0.002950464 -0.053775743 4.9345e-41 -0.020551417 -0.109102 0.058258902 0.001297468
4.9258e-41 0.017822407 0.0382284 -0.019972024 -0.07820088 -0.020090926 0.037378818 -0.017011115
0.017292 -4.9577e-41 -0.00082295446 0.043105617 4.9385e-41 0.013425009 0.06063627 0.01681136
-0.03716259 -0.01680224 -0.032361228 -0.0658515 -0.011092977 -0.020978188 -0.041329812 -0.06555039
-4.9421e-41 5.0825e-41 -0.0073686386 0.037979588 5.7523e-41 -0.03151496 -0.042927124 -0.016326983
2.2781e-41 -0.0027627908 -0.01533269 -0.08260802 -0.057619892 -0.037991438 -0.007663903 0.14779985
-0.06714799 0.040173534 0.12347944 -0.067015156 -0.0020860212 -0.01416175 0.004148089 -0.07314825
-0.06372232 0.00046135992 5.0522e-41 -0.01733925 0.050331827 4.9945e-41 -0.002000668 -0.036165006
-0.06849931 0.020385712 -0.088160776 0.068603516 0.02606539 -0.083611794 -0.05399974 0.009425591
-0.036500715 0.030029984 0.016224356 5.1156e-41 0.19202343 0.08601688 -0.057643015 -0.04465752
0.0021531347 0.04801154 -0.055119313 -0.0069112056 -0.012120293 0.020877158 -0.0017083795 -1.1772515e-37
-0.044293236 0.013998865 -0.10650093 -0.01776077 -4.9204e-41 0.009068313 -0.015736487 0.042857923
5.0639e-41 0.0034788018 -4.9746e-41 5.5047e-41 -5.165e-41 5.1824e-41 -4.9256e-41 0.058868125
-0.00046853136 0.00451467 0.002553161 -0.04409444 0.03172037 -0.01404301 -0.050803058 5.0527e-41
-0.0020933624 0.059341993 0.05610846 -0.040710405 -0.011400294 -0.014310272 0.009788961 0.009545174
-0.027801031 0.010000247 -0.06609295 -0.16403882 0.047896802 0.08627797 -5.2055e-41 -0.034487564
0.014550821 -4.9738e-41 -0.027549813 0.006946566 -0.0015842695 0.03796512 -0.054513425 -0.010882687
0.087606505 0.008142857 -4.9634e-41 -5.046e-41 -0.016416214 -0.09424463 0.030284805 -0.0031382702
-0.09778428 0.04739825 0.016687773 0.015436737 -0.00031438147 0.047219235 -5.006e-41 0.041930158
-0.028543185 -0.09513793 0.03599997 -0.039518364 -0.03725865 4.9923e-41 -0.0067673326 -0.124984816
-0.016881008 0.10772524 0.04879762 -0.015425241 -0.030339967 0.0075796875 -5.0234e-41 -0.06067333
0.05180894 -0.005131735 -0.009128093 5.164e-41 -0.081614465 -0.014715093 0.027018234 0.07930704
0.0069954265 0.04362452 1.2165358e-37 -0.15145943 -0.094821565 0.04802287 0.0116951885 -0.019809296
0.0023145892 4.9574e-41 -0.06981904 0.02397559 -0.012954661 -0.017992832 -4.9704e-41 0.053914078
0.009033421 4.9613864e-05 0.056939773 -0.02840966 -5.4466e-41 -0.04148685 -0.00504606 0.00352017
-0.04926117 -0.02241559 0.0049858014 -0.0103638135 -0.0817487 0.06664651 -0.058006912 -0.00238543
-0.044253226 -0.018627185 -0.027971381 0.018396601 4.9094e-41 0.008605437 0.030966133 -4.9525e-41
-0.09086419 -0.072885044 -0.0013819684 0.08224933 -0.023184909 5.1369e-41 -0.05033775 -0.085004024
-0.009699961 -5.2794e-41 -0.033021025 -0.03230132 -2.1285177e-05 -0.0022820535 -0.046136748 0.026454376
00000000: 98ac e8bc 51e5 babd d1cd bebb 3228 8cbd
00000010: 5379 eb3a ce34 91bb be77 98b9 3361 99bb
00000020: 441f 893b 0f95 0080 114c 5bbd e344 97bc
00000030: 12eb 183d de66 7d3d 0c17 9ca6 e310 493c
00000040: 0c5c 83bd 8573 30bd fd84 3fbd d3c0 ad3d
00000050: a98d bfbc c5e0 81bc 3401 803d 6ae9 82bd
00000060: 1b89 0000 925c 41bb f443 5cbd 8e89 0000
00000070: 725b a8bc df70 dfbd e3a0 6e3d cd0f aa3a
00000080: 5089 0000 4c00 923c 6295 1c3d 5f9c a3bc
00000090: c827 a0bd ba95 a4bc 881a 193d e55a 8bbc
000000a0: f4a7 8d3c 338a 0080 8abb 57ba 848f 303d
000000b0: aa89 0000 92f4 5b3c bd5d 783d fab7 893c
000000c0: cd37 18bd daa4 89bc 358d 04bd 27dd 86bd
000000d0: 51bf 35bc 73da abbc 7349 29bd 483f 86bd
000000e0: c489 0080 ae8d 0000 9f74 f1bb 7c90 1b3d
000000f0: 5aa0 0000 d515 01bd 5ad4 2fbd 2ac0 85bc
00000100: 813f 0000 f00f 35bb f735 7bbc 652e a9bd
00000110: d602 6cbd e99c 1bbd 7a21 fbbb d858 173e
00000120: e384 89bd 018d 243d cae2 fc3d 3e3f 89bd
00000130: a1b5 08bb af06 68bc b1ec 873b c0ce 95bd
00000140: d980 82bd aee2 f139 d68c 0000 0b0b 8ebc
00000150: bf28 4e3d 3a8b 0000 a41d 03bb c221 14bd
00000160: 5e49 8cbd f0ff a63c a38d b4bd 0080 8c3d
00000170: 1687 d53c a93c abbd d52e 5dbd cb6d 1a3c
00000180: c681 15bd 7101 f63c f1e8 843c 9a8e 0000
00000190: caa1 443e 9e29 b03d 151b 6cbd ceea 36bd
000001a0: 9b1b 0d3b c0a7 443d cac4 61bd 6577 e2bb
000001b0: 3294 46bc 9306 ab3c b4eb dfba 3a3d 2082
000001c0: d36c 35bd 7f5b 653c 291d dabd 097f 91bc
000001d0: 2989 0080 4393 143c cee9 80bc ca8b 2f3d
000001e0: 298d 0000 9cfc 633b ac8a 0080 7399 0000
000001f0: fb8f 0080 7790 0000 4e89 0080 b41f 713d
00000200: 37a5 f5b9 ccef 933b ef52 273b 5f9c 34bd
00000210: 38ed 013d a714 66bc de16 50bd d98c 0000
00000220: cb30 09bb 9710 733d fcd1 653d f4bf 26bd
00000230: 4cc8 3abc a275 6abc e161 203c 5d63 1c3c
00000240: fdbe e3bc 13d8 233c be5b 87bd cbf9 27be
00000250: 702f 443d 81b2 b03d 1c91 0080 d542 0dbd
00000260: 9166 6e3c a68a 0080 25b0 e1bc 05a0 e33b
00000270: 43a7 cfba 5081 1b3d 7849 5fbd 4c4d 32bc
00000280: 0a6b b33d 9e69 053c 5c8a 0080 a98c 0080
00000290: 4c7b 86bc 5403 c1bd d717 f83c 70ab 4dbb
000002a0: 2043 c8bd ab24 423d ccb4 883c 5eea 7c3c
000002b0: 91d3 a4b9 f568 413d 8c8b 0080 f5be 2b3d
000002c0: 66d3 e9bc add7 c2bd b474 133d 02de 21bd
000002d0: 879c 18bd 2a8b 0000 80c0 ddbb 0af8 ffbd
000002e0: 0a4a 8abc 0d9f dc3d 03e0 473d 26ba 7cbc
000002f0: 868b f8bc 075f f83b 088c 0080 9984 78bd
00000300: 9c35 543d 1d28 a8bb ff8d 15bc f48f 0000
00000310: 7c25 a7bd 9317 71bc 5855 dd3c bb6b a23d
00000320: e439 e53b a0af 323d 1696 2502 2e18 1bbe
00000330: cf31 c2bd a1b3 443d 2d9d 3f3c 1b47 a2bc
00000340: 5db0 173b 318a 0000 49fd 8ebd 7568 c43c
00000350: c93f 54bc b465 93bc 8e8a 0080 02d5 5c3d
00000360: ea00 143c 7b18 5038 ae39 693d 60bb e8bc
00000370: d497 0080 1dee 29bd 6b59 a5bb a7b2 663b
00000380: 15c6 49bd e6a0 b7bc ef5f a33b fccc 29bc
00000390: dd6b a7bd f77d 883d a898 6dbd e054 1cbb
000003a0: df42 35bd 0a98 98bc 3d24 e5bc 78b4 963c
000003b0: db88 0000 d2fd 0c3c b0ac fd3c 0e8a 0080
000003c0: 0117 babd c144 95bd 2a23 b5ba 5672 a83d
000003d0: 47ee bdbc 328f 0000 f52e 4ebd 9716 aebd
000003e0: 96ec 1ebc 2b93 0080 0e41 07bd 644e 04bd
000003f0: 928d b2b7 818e 15bb e3f9 3cbd d9b6 d83c
